nasdaq_trading_bot/models/rnn/best_rnn_model.pth (torch, 59445 bytes, 10 tensors)

rnn.weight_ih_l0 f4 [64, 15]
00000000: 8402 c33d 5006 f73d 20a7 a73d 34f7 0d3d
00000010: 82b1 903d a08a f0bd d74e f7bc f2a9 013e
00000020: 97e9 4dbd 6aa0 603d e25f a7bc 3495 28bd
00000030: dc0e abbd b32b 2c3d b5b2 aabd b524 ccbd
00000040: ce87 a8bd 71e1 083d d601 4bbd b6ea 353d
00000050: 720b 903d 04a6 1b3c 7167 e1bd c64c 1dbd
00000060: 1268 35bd 2be2 843c f4d5 8dbd aed3 89bd
00000070: a2d3 a1bd bcd4 ffbd e714 1cbd 7f13 973a
00000080: ef55 f13c afaa 35bd c607 9a3d fed5 643d
00000090: 3a61 cb3c ddcb d63d 2c24 22bc 79b2 e3bc
000000a0: 2e64 30bb e3ab f1bb 54df 98bd a5c3 473d
000000b0: b952 f93d bca8 bbbc 532a 2ebd 1da0 ffbc
000000c0: 3c24 f0bd 81e3 b33d 3edb 27bd 896b e23d
000000d0: 1289 7abd 3c4e 803b 0240 a63d 1724 043d
000000e0: 5186 443d 997b 1bbc 0130 a5bd 0255 e2bd
000000f0: bd06 ad3b 6268 0a3d e600 65bd 33d4 dcbc
00000100: 2d2e 403b 7380 8ebd deee 3bbd 172b 11bc
00000110: 6a5f 4d3d f398 5b3d 6d1b 1dbd 80fb 95bd
00000120: 4ead 913d c1b5 0e3b f04d fbbd 8e5a 183d
00000130: f133 7d3c eea5 abbb 51c6 5ebd 470d 5bbc
00000140: a85e f5bd 3f18 f4bd 6072 ea3d 97e8 8e3d
00000150: 8468 c63d 6510 523d 41b7 a3bd cec5 9ebd
00000160: 23e6 a93c f50a fb3d a42b dc3d 2df8 12bd
00000170: 85f4 e03b 7268 e7bc eeea 663d 0f7a 653d
00000180: bd0c 6a3d 2b1f 1dbd 242c d53c b9a8 d1bd
00000190: 1162 833d 2df1 e03c c128 b1bc 838e 5cbd
000001a0: 9909 393d 6169 1abd 0bcb 383c c2b5 7abb
000001b0: 3980 3f3d 0eff dabd 053a 9bbd 82fb 883d
000001c0: 7369 ec3c 2bf6 983d a216 393c 3ac7 89bd
000001d0: 2ae6 a3bd 3d5e a53b 4c1a 513c ec1e 3b3d
000001e0: 44ce d53d e689 cfbb beb3 823c f3df 64bd
000001f0: 1632 fe3d 8e98 e2bb 0fe8 e7bd 10a9 b9bd
00000200: d71f 9a3d a563 db3d 519f 45bd 3baa a43d
00000210: d72b 0abc 9647 6ebd 66b6 b63d ca58 eb3d
00000220: f9f3 c03d 6fe5 b4bd 152d 56bd 3b18 983d
00000230: 321d 27bd 3658 91bd b3b9 60bd 5a8f dbbc
00000240: 1bd4 0f3d a4ff 66bc 6d9e c73d 6706 603d
00000250: ddad 1b3c 4500 0d3e 7c66 043d a471 e93c
00000260: d858 f43c 5dbe 9bbd 5949 9a3d a100 533d
00000270: 5c16 163d 53c3 923d 7a93 193c c829 8bba
00000280: 96ab 84bd 60ef 6a3d bd5a 833d 5523 a6bc
00000290: 2aaa 343d e2e4 0e3c 1ee9 0c3d 6923 103d
000002a0: b0ca edbd 0d3d 9e3c a91f 603d ff55 903d
000002b0: 6b6f 533d 9534 37bd b11d 88bd c10a 1ebd
000002c0: 3105 6cbd 2c4a b4bd 7e1b 97bb 869d a13d
000002d0: df05 2bbc 1375 95bd d693 a5bd d015 e83c
000002e0: ad17 5ebd 1e6e 3fbd ef82 f73c 79eb ed3d
000002f0: beaf c9bd 6b30 aebd b8fb edbc 2cb4 bb3b
00000300: 1a3e 373d 2bec 71bd d4e2 113e 1084 b83c
00000310: 59f9 6dbd 0b68 903c be09 57bd dc6a b33d
00000320: 0a14 3cbd 9373 0bbe 892f 9abd d314 bb3c
00000330: 57b5 f53c b85b 8f3c 5944 0bbd d28f 3fbd
00000340: 3fa4 af3d 8678 0bbe 49bd 7ebd 8e41 ae3b
00000350: 5bdb 943b fdea aa3c b3ca 7cbc 103a 213d
00000360: 129f 43be c3ea 603c 4e78 d0b9 bc90 a5bd
00000370: 8e43 5a3d 9e95 bb3d becd 0abd 4ba3 8fbd
00000380: a7a8 163e 5997 a43c ce2f 2bbd b774 eabc
00000390: 9951 aa3b ed8b 993c 6949 253d a8dd 483d
000003a0: abd6 8f3d f673 9d3d 7d46 163d 199a d6bd
000003b0: 87bb 72bd 350f 983d ebd2 72bd cec9 0ebe
000003c0: 3444 b43d 290d afbb 9924 aa3d d190 babd
000003d0: c53a 17bd 127a 81bd af36 c4bd 8c03 8a3c
000003e0: 6c41 3a3d 7afe 9ebd 754b 853d fd71 8cbc
000003f0: 23e6 fc3c 4509 cc3d 188f a33d f132 433d
0.09521964 0.12061751 0.081861734 0.03465958 0.07065107 -0.117451906 -0.030188961 0.12662485
-0.050271597 0.054840483 -0.020431463 -0.041157916 -0.083524436 0.042033862 -0.08334867 -0.09967939
-0.08229028 0.033418123 -0.049562298 0.04441329 0.07033433 0.00950003 -0.11006058 -0.038403295
-0.044288702 0.016221127 -0.06925574 -0.06729828 -0.07901694 -0.12491748 -0.03810587 0.0011526196
0.029459922 -0.04435223 0.07521014 0.05586814 0.024826635 0.104881026 -0.009896319 -0.027795063
-0.002691518 -0.007375227 -0.074644715 0.048770566 0.12173981 -0.022907607 -0.042520832 -0.031204278
-0.11725661 0.08783627 -0.04098057 0.11055667 -0.061165877 0.0039155763 0.08117677 0.03226098
0.047979657 -0.009489917 -0.08065797 -0.1105137 0.0052803443 0.033790953 -0.05590906 -0.026956653
0.0029324398 -0.069580935 -0.0458821 -0.008860371 0.050139822 0.05361266 -0.038356233 -0.073233604
0.07113133 0.0021775814 -0.12270725 0.037195735 0.015454278 -0.005238286 -0.054388348 -0.013369865
-0.11980945 -0.11918687 0.114475965 0.06977957 0.096879035 0.051285166 -0.07993937 -0.07752572
0.02073962 0.12257949 0.10750511 -0.03588121 0.0068650865 -0.028248046 0.05637639 0.056024607
0.057141054 -0.038359802 0.026022024 -0.102372594 0.06415189 0.027458752 -0.021625878 -0.053846847
0.04517517 -0.037698153 0.011278878 -0.0038255309 0.046753142 -0.10693179 -0.07579426 0.06688596
0.028858876 0.07468828 0.0112969 -0.067274526 -0.08002885 0.0050466345 0.012762617 0.045683786
0.10439733 -0.0063335774 0.015954848 -0.055877637 0.12411897 -0.0069151586 -0.113235585 -0.09065449
0.07525604 0.10712365 -0.04824764 0.080402814 -0.008433304 -0.05817374 0.089215085 0.114915445
0.09421534 -0.088328235 -0.052289087 0.074264966 -0.040799327 -0.07096903 -0.054864597 -0.026801754
0.03511439 -0.014099035 0.09747014 0.054693606 0.009501901 0.13769634 0.0323243 0.02849657
0.02982752 -0.07604668 0.07533521 0.05151427 0.036642417 0.071661614 0.00937354 -0.001061731
-0.0647804 0.057357192 0.06413791 -0.02028052 0.044107594 0.008721562 0.034402005 0.03519002
-0.11610925 0.01931622 0.054717693 0.070476525 0.05161993 -0.04472788 -0.06646288 -0.038584474
-0.05762214 -0.0880321 -0.0046114316 0.07891373 -0.0104384115 -0.07297721 -0.08084838 0.028330714
-0.054221798 -0.046735875 0.030213801 0.116171785 -0.09847973 -0.08505329 -0.029050693 0.0057282653
0.04473696 -0.059063118 0.14246684 0.02252391 -0.058099125 0.017627737 -0.052499525 0.08760616
-0.04591755 -0.13618307 -0.07528598 0.022837078 0.029993696 0.01749979 -0.03400073 -0.046768017
0.08576249 -0.13620195 -0.062192235 0.0053178733 0.004542751 0.020864004 -0.015429187 0.039362013
-0.1910365 0.013727847 -0.00039762486 -0.080842465 0.05328708 0.091593966 -0.033887617 -0.070135675
0.14712773 0.0200917 -0.041793637 -0.028620107 0.0051977155 0.01874348 0.040353213 0.049039513
0.070233665 0.076881334 0.036688317 -0.104786105 -0.05926087 0.074247755 -0.05928318 -0.1394417
0.08802071 -0.005342145 0.08307762 -0.09109653 -0.03692128 -0.06322111 -0.095807426 0.016847394
0.045472547 -0.07763381 0.06508533 -0.017144198 0.030871456 0.099627055 0.07986277 0.047656003

rnn.weight_hh_l0 f4 [64, 64]
00000000: 5591 2fbd 21e9 75bd ce11 be3c af6a da3b
00000010: 805c e7bd 1995 d2bc d0de a2bd 6aa9 34bc
00000020: de5b 0fbd 220b 923d 297a 17bd ff1e 733d
00000030: 19fc 49bd c6b4 d63d c1f4 d73d 4609 c9bd
00000040: 2034 7a3d 7a1a a0bd 4b89 ee3c 3624 b7bd
00000050: 6d07 abbd 6d7a 3a3d eacd 903d 5158 6d3c
00000060: 6a51 943d 6c6d 353d ffa7 e7bd b0cd ff3d
00000070: 8630 76bd 7af6 9dbd 6dd2 cc3b f55d 2dbd
00000080: 9edd 13bd e98f 67bd f4e3 ccbc 08fa 8ebd
00000090: 14f7 80bd 628a 973d e8ff f4bb 2f18 94bd
000000a0: 603b f43c e578 99bd 3ae8 afbc b197 e23d
000000b0: fdd2 193d fbf6 86bd 7480 a4bc a6c5 d83d
000000c0: bf5f c93c 2cb2 b1bd 7043 a63d 8bfb 4cbd
000000d0: b763 f13d 7f34 3c3b ef20 c43d 7299 323d
000000e0: 09df 4abd 8a1b 91bd 0cc2 adbd 3a1c 86bd
000000f0: b7fa fc3d ad3a 1e3d 45d8 fa3c c51d 703d
00000100: 479f 04be 922e bbbd a244 bc3d 9907 eabd
00000110: 8a89 b9bd 1655 a13d 1f0b a8bd a9fc b73d
00000120: 2463 86bd 5078 8d3d 396a abbd ba69 b63d
00000130: fa03 99bd 9da0 983d d18e edbc 7756 de3c
00000140: a97c 853d 29ea d13d a1c7 813d 426a 783d
00000150: 7554 663d 5731 35bd 2dd4 cebd 11d2 89bc
00000160: 50f0 54bd 9e41 aa3c 9bfa 94bd 6701 8bbd
00000170: 7ab2 703d 9832 00bd 3d5d c2bc 0429 a23c
00000180: 1fe2 8abd 57c8 c83c 2655 b5bd 74fc e1bd
00000190: d18e 063e c18a 80bd 7380 3a3d 4c2f 033e
000001a0: 69ca 8abd a8b7 14ba 2a43 fcbd e46a b93d
000001b0: d3e1 71bd 0605 91bd 4a53 f3bd 3b4f 07be
000001c0: 22b4 e9bd f639 873d 2e85 bfbd fbc2 6dbd
000001d0: 32de 0f3e 3335 cdbd aa22 e43d 88a3 c03d
000001e0: 77ce 803d 3933 e8bd 5375 ca3d f7b2 0ebd
000001f0: 802e e93d 6822 64bd 6c1b 0abb 3488 e7bc
00000200: 1548 f63c 3bee 69bd c7b3 d3bd 6061 a1bd
00000210: ef62 0d3a 8de4 523d ce13 c8bd 1f87 f43d
00000220: c47e 12be 7c0f b6bc 86c5 d2bd 49dd 0cbe
00000230: 4c83 123c c0ae c9bd 828d e23d 8323 83bb
00000240: 5c3b cdbd 692e 363c 2183 d4bc 9675 fdbd
00000250: 1cfa ea3d e088 51bd ea92 723d 6bbb 623d
00000260: 004a e0bb 21c7 a0bc baca f9bb 785b 96bc
00000270: 48d2 a8bc 0817 2ebd b278 febd bf59 d63d
00000280: 312c 3fbd 6ae6 db3d 4725 deb9 1f17 98bc
00000290: a188 06be 71b7 2f3d 06e7 903d af38 d2bd
000002a0: 8ba0 9e3d a8ef 4a3d 34f1 83bd 204a 8d3d
000002b0: a3be d63d 97cc aebd 8ad2 533d b919 f93d
000002c0: 5102 20bc 7599 e5bd 937b 72bd 605e 293d
000002d0: 86ff f33c e2b7 32bd b1eb f33d be7d 523d
000002e0: 2ea7 923d 7889 65bd 5668 e9bc 3221 9bbd
000002f0: 0eea 283c 79eb 073e 2330 88bb 280c a2bd
00000300: f88b f63d 8bbe 883d ce78 cb3d 4f54 8dbc
00000310: 786f ac3d c8cb ba3d 9598 2dbc 71af 18bd
00000320: e0e7 da3a 2ddb e33b 3c33 9bbd 1b5c e8bc
00000330: 0988 093d 4a41 4fbd 1525 b03c 4e33 293c
00000340: 4817 e9bc 2efa 9b3c 292d d03d 90c9 d73d
00000350: 3fcf cbbd 1a21 caba 853e 1f3b 4017 363d
00000360: ea63 853d f420 b8bd f652 a63d 1bec c2bc
00000370: 09e3 49bd ccb1 0e3d d06f 9dbd 8e68 293d
00000380: d3c8 61bd df82 313c 7ade 6d3c 5f73 83bd
00000390: 8fdf 143d 823c c33d 2aec b73d 469a a2bd
000003a0: 7d93 be3c 030e a7ba f172 a6bd e174 55bd
000003b0: 538d ad3d 8f82 c7bd cd96 b8bd 9e03 e0bd
000003c0: cd04 d33d 6096 68bd 6437 0dbc 394a 32bb
000003d0: 9d08 52bd c9a3 d3bc 427a ff3c 66a5 f2bc
000003e0: ab91 b6bd 744c 643d 2ba9 b53d 4285 ddbd
000003f0: b6a8 c1bd aa15 0cbe 1452 d03d 46c0 e53d
-0.04286321 -0.060036782 0.02320185 0.0066655497 -0.1129694 -0.02570586 -0.07952654 -0.01102672
-0.03499972 0.0713103 -0.036981735 0.059355732 -0.049312685 0.104836985 0.1054473 -0.09816222
0.061084867 -0.0781755 0.0291182 -0.089424536 -0.08351026 0.04552691 0.07070525 0.014486388
0.07242091 0.044293806 -0.113113396 0.12490404 -0.06010487 -0.07713027 0.0062506706 -0.042325933
-0.036100022 -0.056533728 -0.02501104 -0.069812834 -0.062971264 0.07399441 -0.0074767955 -0.07231175
0.029813468 -0.07493762 -0.021473039 0.11064089 0.03755473 -0.065900765 -0.020080782 0.105845734
0.024581788 -0.08676562 0.081183314 -0.050044578 0.11786597 0.0028717814 0.09576594 0.043603368
-0.04952911 -0.07085331 -0.08484277 -0.065483525 0.123525076 0.038630176 0.030620703 0.05862214
-0.12951384 -0.09139742 0.09192778 -0.114272304 -0.090594366 0.07877557 -0.08205246 0.08983738
-0.06561878 0.069077134 -0.0836987 0.089068845 -0.074714616 0.074525096 -0.028998764 0.027140839
0.06517918 0.10249741 0.06336904 0.06064821 0.05623289 -0.044236507 -0.10099063 -0.0168238
-0.051986992 0.020783242 -0.07274362 -0.06787377 0.05876396 -0.03129825 -0.0237261 0.019794948
-0.067814104 0.024509592 -0.088541314 -0.1103448 0.13140418 -0.06276465 0.045532655 0.12811011
-0.06776888 -0.0005673119 -0.12317498 0.09053591 -0.059053253 -0.07081036 -0.118811205 -0.13213818
-0.11411311 0.06602852 -0.09351574 -0.058047276 0.14049605 -0.100199126 0.11139424 0.09406191
0.0628938 -0.11337895 0.09885659 -0.034838643 0.11385822 -0.055696875 -0.0021073474 -0.028263189
0.030063668 -0.05711196 -0.10337024 -0.07879901 0.00053934654 0.051487494 -0.097694024 0.11939835
-0.1430617 -0.02222418 -0.10291581 -0.13756289 0.008942436 -0.09847784 0.11062147 -0.004002036
-0.100210875 0.0111194635 -0.025941433 -0.12375943 0.11473486 -0.051155925 0.05922214 0.055354517
-0.006844759 -0.019626202 -0.007623044 -0.018354163 -0.020608082 -0.042502433 -0.124253646 0.104663365
-0.046673004 0.10737307 -0.00042370913 -0.018565712 -0.13138057 0.042899553 0.07075314 -0.10264718
0.07745465 0.04954496 -0.0644249 0.06898904 0.1048558 -0.08535116 0.051714458 0.12163109
-0.009766177 -0.1121091 -0.05919988 0.04134977 0.029784929 -0.043632396 0.11910189 0.05138945
0.07160793 -0.056039304 -0.028492134 -0.07574691 0.010309709 0.1327342 -0.004156129 -0.07912475
0.12038416 0.06676968 0.09935151 -0.017252116 0.084196985 0.091208994 -0.01059546 -0.03727669
0.0016701184 0.006953618 -0.075781316 -0.028364232 0.033577 -0.050599374 0.021502057 0.010327173
-0.028453484 0.019040193 0.101648636 0.10536492 -0.099516384 -0.0015421242 0.002429874 0.044455767
0.06513198 -0.0899066 0.08121292 -0.023794224 -0.049288783 0.03483753 -0.07687342 0.041359477
-0.05512316 0.010834425 0.014518375 -0.0641849 0.036346015 0.09533025 0.089805916 -0.079395816
0.023263687 -0.0012745265 -0.08127392 -0.052113418 0.08474221 -0.09741699 -0.09013138 -0.1093819
0.1030365 -0.056784034 -0.008619163 -0.0027204885 -0.051277746 -0.025834935 0.031186227 -0.029619884
-0.08914503 0.055736974 0.08870157 -0.108164325 -0.09456007 -0.13680139 0.10171905 0.11218314

rnn.bias_ih_l0 f4 [64]
00000000: 1373 bd3d fb8c 7e3d 3831 d33c 508d ba3d
00000010: fe85 983d 6f7e 3e3d 565b db3c 810b cc3c
00000020: cde5 b23d 00df 05be 746e a03d 9be0 e43c
00000030: cb06 a43d 6118 053e dad0 ea3d 4588 21bd
00000040: d2f6 b9bd 81e4 c43d 4d6e 663d 5ea7 ea3d
00000050: 78f9 d53d 2900 84bd dcfc b2bd 6a43 813d
00000060: 55d7 b13d b799 133d b889 be3b e171 0b3e
00000070: 20df 123d 2010 2a3d af90 343c 386e a2bd
00000080: cf53 ee3d 38bc dbbd 9118 093d 5368 fc3c
00000090: 646c bd3c 2be8 883d ce0f 133e 195f 363c
000000a0: 1ba8 fdbc 1034 5b3d 8f36 0a3d 33d3 bdbd
000000b0: 5678 793c 0a14 f33d 2555 b8bc 7120 9c3d
000000c0: ef35 ae3d aeb0 68bc 664e bfbd 8566 2cbd
000000d0: 31cd 8c3c fb0d 743d 34d6 123d 1931 153b
000000e0: ed69 643d 648c 343c 2d76 7d3d 22f7 8d3d
000000f0: b4ab bfbd b4af fe3c 20fd ca3d 6ecf 8bbd
0.09250464 0.06214617 0.025780305 0.091089845 0.07447432 0.046507295 0.02677695 0.02490783
0.08735237 -0.13073349 0.07833567 0.027939131 0.08009108 0.12997581 0.114656165 -0.039436597
-0.0908028 0.09613896 0.056257535 0.11457704 0.10447973 -0.06445343 -0.08739635 0.06311686
0.086836495 0.036035266 0.005814757 0.1361766 0.03585732 0.041519284 0.011020823 -0.07931179
0.11637079 -0.10729259 0.033470694 0.030811464 0.023122974 0.066849075 0.14361498 0.0111310715
-0.030963948 0.053516448 0.033743437 -0.09268799 0.015226444 0.118690565 -0.022501538 0.07623375
0.08506381 -0.01420228 -0.09341125 -0.042089958 0.017187687 0.059583645 0.03584881 0.002276486
0.05576508 0.0110198 0.06188028 0.069319025 -0.09358922 0.031089641 0.09911561 -0.068266734

rnn.bias_hh_l0 f4 [64]
00000000: 3248 c3bd 77a7 04be 8376 59bc dd15 7eba
00000010: c5b9 30bd f393 333c 9588 b2bd 86ac 93bd
00000020: 29ba 813c 8d70 a03d 7490 133d d037 923d
00000030: c7a1 00bd 7df4 a13d 8aa0 323d 4da4 cdbd
00000040: 003d f8bd 30d4 333d 9ee4 e1bc aa12 b0bd
00000050: f4d3 32bd 0177 7dbb 0c3b 81bc 7dc0 a4bc
00000060: 7e2d 73bd 2814 893d d08e 233c c17a dd3d
00000070: 17e9 5bbd b101 23bd 38cb d4bd e384 cebd
00000080: ba96 663d 9ecf 56bd f4f8 75bd b742 f0bb
00000090: 1de8 65bd 13e1 e13d 9ddf 0d3d a427 62bd
000000a0: bf2c 8e3d 77ed 9a3d acb3 ea3c 9e6a ec3b
000000b0: 8ed4 0c3e 98eb bcbd f8c0 193d a1bc b13d
000000c0: b54b d43d b0da a3bd 4a23 693c 998f ab3d
000000d0: c511 7bbc e63c b63d 4089 c8b7 c7c0 d63c
000000e0: c255 9dbd 9783 46bd febe 5dbd 0671 cabb
000000f0: 1407 88bc b762 183d de8e 01bc 3386 f33d
-0.095352545 -0.12954508 -0.013272884 -0.0009692589 -0.043145914 0.010960567 -0.08717457 -0.072106406
0.015835838 0.07833967 0.036026433 0.07139552 -0.031404283 0.079079606 0.043610133 -0.100411035
-0.1212101 0.04390353 -0.027574833 -0.0859731 -0.043659166 -0.0038675668 -0.015775226 -0.020111317
-0.059369557 0.066932976 0.00998278 0.10814429 -0.05368909 -0.039796535 -0.103903234 -0.1008394
0.056296088 -0.052444093 -0.060051873 -0.007332172 -0.056129564 0.110292576 0.034637082 -0.055213585
0.069421284 0.07564824 0.028650127 0.007214858 0.13752958 -0.092246234 0.037537545 0.08678556
0.103660025 -0.08000696 0.014229605 0.083769985 -0.015324061 0.08898334 -2.390577e-05 0.02621497
-0.07682373 -0.048465338 -0.054137222 -0.006178024 -0.016604938 0.037203517 -0.007907597 0.11890831

rnn.weight_ih_l1 f4 [64, 64]
00000000: c06b 14bd 9b91 fc3c ea53 8bbd 8642 e93d
00000010: 8b34 e83d 9cd3 2f3d 3979 11bc 837b 0dbe
00000020: 2150 8bbd 1f82 693d a214 a4bd 1513 d9bd
00000030: 97d7 cbbd 288b b53d adec 843d a876 bfbc
00000040: c0cf 0abe 2d20 89bc 9b7d c13d 2ea2 66ba
00000050: b681 cd3d 9818 62bd a108 143d 0da0 cfbd
00000060: f6b6 dcbc fdea 543d 54ed 233b a58e babd
00000070: 7405 b4bd 687c 36bd 7e4b 1f3e 7f37 31bd
00000080: 2f4a 8e3d 7c15 313d fadf 20be 7e53 ab3b
00000090: d1e2 3abb 8ee1 17bd 9ce9 053e 2d00 b1bd
000000a0: af46 52bd 6939 12be 37cb 553d 7b0f c7bd
000000b0: 7757 86bc 2683 77bd 318f 053d 7a92 97bd
000000c0: 6ae0 553c 81c7 a7bd 2d8f 963d 8d62 9a3c
000000d0: 3a51 92bd e071 7fbc bc6e b1bc 4039 f3bd
000000e0: 7f2e 36bd 508a 163c d67a 8abd 6ded 04bd
000000f0: 2967 e63a 4af0 063e 9c08 e9bd 36c2 163d
00000100: fb14 163d d19f a53c 0c91 a53d 7272 c03c
00000110: 2d4e 003e cbfa 9ebd dd92 12be 4c60 f7bd
00000120: f48f f8bd 1b9d 35bd c632 ddbd 3e16 efbc
00000130: e2a8 c7bc 6984 c93c 175a b2bd 21df 79bd
00000140: 70ac eabd 1c9c 68bd b968 0b3e ed77 05be
00000150: 1642 903c 1724 df3d bd52 9ebd 1fde c53c
00000160: 0040 a7bd fdd1 9d3d 7d4c 9d3d d676 813c
00000170: 2adf 92bc 6edf b93c 39dc 973d 81cc 0ebe
00000180: 790d f7bd c14f edbc 3eb1 2c3d 4af3 2ebd
00000190: 2ee5 01be 6782 efbc d604 f23b ce6d a0bd
000001a0: a11f 473c e94d e4bd 6d1e 723a 8f2f 97bc
000001b0: eb5f b13d ee24 d3bd 5111 08bc 1464 813d
000001c0: 7fb2 d3bd df6c 1f3d 1d98 2fbd b91f 8fbc
000001d0: f55a 07be 59ea 4abd 12f3 bbbc 052b babd
000001e0: 2dda 863d cf0f 0a3c 1054 97bd f82d 71bd
000001f0: 9bc8 4ebd a211 b8bc 5480 68bc c34b dc3d
00000200: e788 48bc 6913 17be 33d1 123e ea38 dc3c
00000210: 0549 52bd 47c4 ab3c ec9d 0bbb 4944 ce3d
00000220: 1bd2 acbd 6027 a1bd 062f 47bd 6547 9a3d
00000230: b56e 71bc 7596 17bb 3567 77bc ca44 1d3d
00000240: e9fb 5abd 7cc9 e33d b9ed 613c 835b 23bd
00000250: 16c7 c0bd 6517 18bd 7a6f e3bd 2834 cabc
00000260: a837 153d 0b02 e43d 5da2 eb3d 21a8 f93c
00000270: c6ff 11bd 352c a63d 3a97 17be bc4d 203d
00000280: bdda 53bc 2686 003d 9deb c73d 3f6a 693b
00000290: a66f 463d e8fc 373c 825c 08be 75f6 d93d
000002a0: 3383 91bb 1219 983c bc78 8c3d 78f1 463c
000002b0: 819f 6b3d dc9d 0e3c 5f45 493d fef5 983c
000002c0: 3c77 0ebd de5c 3c3d 4be3 ce3d 94bc 1cbe
000002d0: f4ac 9f3c 3e59 0ebe e249 d7bb 6cb5 c53d
000002e0: cd36 943d d157 2fbd d7f1 463d 206f 9fbd
000002f0: 1739 d2bc dab1 d6bd 0f19 473c d178 c5bd
00000300: e2e3 ff3d 7dae 1abd fec5 fdbc aa4b 1a3e
00000310: 814e b2bd 9e66 2fbd d9b6 c83c 105a cebd
00000320: 1f43 57bd ab5f 653d 654f e0bc 47f7 d4bd
00000330: 3af2 b43d 0d19 193e 6d87 333d 4ed0 0f3e
00000340: ddeb 5f3d e4a0 b83d c2f2 253d 3c18 7b3d
00000350: 3a8b b83d ad67 943c ff3e ce3d 90b9 8f3d
00000360: bb96 55bd 4a89 cbbd e5dc 98bd 9c29 0a3d
00000370: 41b3 d33d dd5d 80bd 28ca 603d c741 7f3d
00000380: 7911 d63d 9213 11bd 3122 9cbc b0b0 2e3d
00000390: 0de8 a33d 4d5a f83d 4599 d63d 3e85 55bd
000003a0: 7d6f 8d3c 01fe a3bd 7fff 6e3d 896c 21bd
000003b0: b78c 203d 97db 8cbd 6f77 bd3d b244 003e
000003c0: a533 a63d 9d89 a53d c069 9ebc 9abb 4b3d
000003d0: 15d0 a9bd 3a4d 213d a5cb ccba d236 0f3d
000003e0: f569 9d3c 09c5 c33d 82a6 28be d649 07bd
000003f0: bb97 f63d 1ced 1a3e 39c9 4d3d 18cb 4ebd
-0.03623557 0.030831149 -0.06803115 0.113896415 0.11338147 0.042926416 -0.008878999 -0.13816647
-0.06802393 0.05700886 -0.08011748 -0.10599343 -0.0995323 0.088644326 0.06490455 -0.02337201
-0.13555813 -0.016738975 0.094477855 -0.00087979704 0.10034506 -0.055199236 0.03614104 -0.10137949
-0.026942711 0.051981915 0.0025013285 -0.091092385 -0.087901026 -0.044552237 0.15556142 -0.043265816
0.06947743 0.04323338 -0.1571044 0.005228459 -0.002851654 -0.03708034 0.13077396 -0.08642612
-0.05133694 -0.14279713 0.052195754 -0.097197495 -0.016399128 -0.060427807 0.03260726 -0.07400985
0.013053993 -0.08192349 0.07351527 0.01884582 -0.07144399 -0.015591115 -0.021659248 -0.11876154
-0.044477936 0.00918825 -0.0676171 -0.03245299 0.0017578352 0.131776 -0.11378595 0.036806308
0.036641102 0.020217808 0.08084306 0.023492072 0.12529822 -0.07762679 -0.14313836 -0.12078914
-0.12136832 -0.04433928 -0.108007 -0.02918541 -0.024372522 0.02459927 -0.087085895 -0.061003808
-0.11458671 -0.056789503 0.13614167 -0.1303403 0.017609637 0.108955555 -0.07730625 0.024153767
-0.08166504 0.07706068 0.076806046 0.015803736 -0.017928679 0.022689547 0.07415051 -0.139452
-0.120631166 -0.028968694 0.04216122 -0.042712487 -0.12685081 -0.029236985 0.0073858304 -0.078334436
0.012153537 -0.11147673 0.0009236101 -0.018455295 0.08660873 -0.10309778 -0.00830491 0.063179165
-0.1033678 0.038922187 -0.042869676 -0.017471181 -0.13218291 -0.049539898 -0.022943053 -0.090902366
0.065845825 0.008426621 -0.073890805 -0.05888173 -0.05048428 -0.022469345 -0.014190752 0.10756638
-0.012239671 -0.14753498 0.14337616 0.026882607 -0.051339168 0.020967616 -0.0021303846 0.10071618
-0.08438512 -0.07868838 -0.04862883 0.07533149 -0.014735867 -0.002313045 -0.01510029 0.03839568
-0.053462896 0.111224145 0.013789588 -0.039882194 -0.09412973 -0.037131686 -0.11105247 -0.024683073
0.03643003 0.11133202 0.11505578 0.030475678 -0.035644315 0.081139006 -0.14803782 0.039136633
-0.012930569 0.031377934 0.097617365 0.0035616306 0.04844632 0.011229731 -0.13316539 0.10642711
-0.004440689 0.018566642 0.06858966 0.012142532 0.05752516 0.008704629 0.049138423 0.018671986
-0.03478168 0.045987003 0.101019464 -0.15306312 0.01949165 -0.1390123 -0.006570087 0.09653744
0.07237015 -0.042808358 0.04857048 -0.07784867 -0.025661988 -0.10483141 0.0121519705 -0.096421845
0.12494637 -0.03776406 -0.0309782 0.15067926 -0.0870638 -0.042822473 0.024501251 -0.10075772
-0.052554246 0.05599944 -0.027381608 -0.10398727 0.088352636 0.14950962 0.043830324 0.14044306
0.054668296 0.090150625 0.040514715 0.06130241 0.0901093 0.018115843 0.10070609 0.07017815
-0.0521457 -0.09938295 -0.07464007 0.033731088 0.10336924 -0.06267903 0.05488029 0.06231859
0.104525514 -0.035419054 -0.019059272 0.04264897 0.080032445 0.121265985 0.104784526 -0.052129023
0.017265076 -0.08007432 0.05834913 -0.039410148 0.039196696 -0.06877821 0.09251296 0.12526205
0.08115319 0.08082888 -0.019337535 0.049739458 -0.082916416 0.03938029 -0.0015624656 0.03496439
0.019215563 0.09559066 -0.16469768 -0.0330294 0.12040659 0.15129513 0.05024073 -0.050486654

rnn.weight_hh_l1 f4 [64, 64]
00000000: 9054 b8bc f5d2 57bd 6576 8c3c edbc e63d
00000010: 7665 8d3d 5d17 3f3d 7b74 483c fb8d 843d
00000020: 79bc 953d 47c6 abbc 6e18 83bd 14c0 a53c
00000030: ba3d 6cbd bc1b 8c3d 9d9d c93d a928 e1bd
00000040: df94 e23d 5ef3 a6bd f4c7 e13d 65e5 67bd
00000050: f4fd c8bd 4a70 ccbd 8a96 c3bd a772 ae3d
00000060: a942 84bc d2f0 09be ef02 be3d 46d8 b03c
00000070: 8bd9 48bd 7eb3 a93c e635 b03d 50f2 d7bd
00000080: f3e7 0b3e fe6b e33d e8fb e93d 99ca f33c
00000090: c73d a23d dfa5 e03d e4b8 97bd fc99 abbc
000000a0: 3378 c1bd cbb6 be3d 9d53 4c3d 6462 b03d
000000b0: a17d 853d 7815 a3bd b0b7 9d3d 2c96 92bc
000000c0: c169 1dbd dd37 49bd 07fc 5e3d 1ead cdbd
000000d0: c65e babd e2ca 6dbd 8402 343d ca84 e83d
000000e0: b571 febb 45ba 463d a842 b7bd ada0 aa3d
000000f0: 1801 cebd c083 a83d 8705 c3bd 727b 79bd
00000100: 4f43 f5bd a10f adbd b4ef ca3d daea d93d
00000110: 3775 9b3b e38c d3bc 6048 18bd 9292 80bc
00000120: e368 ca3d 0b8f 913d e414 e8bd 4242 d83d
00000130: 33ab 163d ea48 37bd abed d5bd 3152 e03d
00000140: d506 c7bc 6625 97bd 1216 05bd 8923 2c3c
00000150: fc0c b6bd 690f c03d 3382 b43d 48c2 b9bd
00000160: ec2b ebbd 96bc 2cbb a163 e6bd a723 eb3d
00000170: 1815 0bbd e786 b8bd 4011 b2bd 13e2 a7bc
00000180: 3777 c03d 25bb bbbd b885 a2bd 9020 95bc
00000190: e72d 4fbd 2ed8 8fbd 4109 b73d aa82 e0bd
000001a0: 60fd 703d 25b7 d8bd 4fed 45bd e022 62bd
000001b0: 2aa2 c6bd 1e60 f4bd d03b 26bc 70ee d23d
000001c0: 8caa d6bd ba30 82bc f67d e33d 8d19 17bd
000001d0: b5eb 57bb 9269 e13d bc00 72ba 7c3d 1abd
000001e0: ab8d 4e3d 3087 683b 48a5 b0bd 6370 d2bd
000001f0: 219b 8cbc 54d6 23bd 3923 eebd 4dd4 663d
00000200: 9974 24bd 773d bebc 5a24 e3bd 7e22 6e3d
00000210: 5825 fc3d 7a41 02bc e9ec 74bd 66ed ef3d
00000220: ab60 fd3d eed9 9f3d 72fa 203b 53ac cebd
00000230: ce54 a7bd b093 ad3c 4cfd 6a3d c1c8 82bd
00000240: cd76 42bd c564 e53d d596 913c 1418 febc
00000250: 983c ccbd 1fdd b7bd d6aa 3cbd ef31 51bd
00000260: 4c9d 4f3d d7a2 bebd 40f2 15bd d2cd a0bd
00000270: 949d d4bd ec91 02bd 16c9 92bb 4ba1 b43d
00000280: aedd 693d 8c47 cfbc a379 423b 91ac ab3c
00000290: 82e0 96bd eb3e 633c 365a 083d 85f9 b03d
000002a0: 5bfe 90bd c600 023c c123 78bd 76cd cfbd
000002b0: 1321 483c 2d07 87bd 0bde c13d 0e86 0ebd
000002c0: 4017 debb 8c5a ab3c 1cd4 cfbd 6633 c73d
000002d0: 0daa 06bc 8050 803c 2588 9f3d 16b4 363d
000002e0: ac75 9abd ffbe 413d 9c96 49bd 33f4 9e3d
000002f0: a493 c63d e8a9 32bd 45e6 19bd 7554 953d
00000300: 0089 b4bd b3a9 93bc cb08 16be f686 1fbc
00000310: c7d6 8cba 524e 7fbd 5ad0 88bc ff2d 5e3d
00000320: 4f80 753d cea7 dbbc 0b83 b6bc f98f e93d
00000330: 7a6b 553d 6872 9ebd 79fc b4bc a15a e53d
00000340: 9271 043e 889b 80bd 6ffe 23bd afa3 0dbd
00000350: 13ab a63d 3f18 c03d 6d26 f73c a126 9e3d
00000360: 0dd6 e6bd 8ae8 6f3d 09ec 49bd 3531 cc3c
00000370: d8e1 693d 00a2 f43d fb35 5d3d 212c 493d
00000380: b118 2bbd 5798 ec3d 0eeb 84bd 118d cd3c
00000390: 0426 d23d 0741 b43d 6a8d da3d 51a4 bcbd
000003a0: 7bcb ab3b 732f 9cbd a16f b83c f539 14be
000003b0: 75fc 00bb e2fa ebbc 7960 923d 1785 02bd
000003c0: ea71 71bd b856 f0bc 5b9f 39bd 08d6 923d
000003d0: ca91 c0bd ae53 753c 32ca 153d 79db bcbd
000003e0: 563d 25bd ee7e cabd bc92 56bd 5a97 4cbd
000003f0: 347e efbc 0371 68bc 9664 043e cfb8 683d
-0.02250126 -0.05269142 0.017146299 0.112665035 0.06904118 0.04665314 0.012234802 0.06472393
0.07311339 -0.02096857 -0.06401144 0.020233192 -0.057676055 0.068412274 0.098445155 -0.109940834
0.11063551 -0.08151887 0.11024466 -0.056615252 -0.09814063 -0.09982355 -0.095501974 0.08517962
-0.016145067 -0.13470772 0.09277903 0.021587502 -0.04903559 0.020715471 0.0860403 -0.10544264
0.136627 0.11104582 0.114250004 0.029759692 0.07921939 0.109691374 -0.07408312 -0.020947449
-0.09446754 0.09312209 0.049884427 0.086125165 0.065181024 -0.07963079 0.07701051 -0.017893873
-0.038430933 -0.04912554 0.05443957 -0.10042785 -0.09100108 -0.058054812 0.04394771 0.113534525
-0.00776502 0.048517484 -0.089482605 0.08331428 -0.10058802 0.08228254 -0.09522539 -0.060908742
-0.11975729 -0.084502466 0.09909001 0.106404975 0.0047441977 -0.025824016 -0.037178397 -0.01569489
0.09883287 0.071073614 -0.113321096 0.10559513 0.036784362 -0.04474727 -0.10445722 0.10953177
-0.02429525 -0.0738018 -0.03249175 0.010506519 -0.08889195 0.09377939 0.08813896 -0.09070259
-0.11482987 -0.0026357523 -0.112494715 0.114814095 -0.033955663 -0.090101056 -0.086946964 -0.020493543
0.093977384 -0.09166554 -0.07935661 -0.018204004 -0.050580885 -0.07023655 0.08937312 -0.10962422
0.058835387 -0.10581807 -0.04832202 -0.05520904 -0.09698899 -0.119323954 -0.010146096 0.102993846
-0.10481748 -0.015892375 0.111080095 -0.0368896 -0.0032946889 0.11006464 -0.0009231677 -0.037656292
0.050428074 0.0035480969 -0.08625275 -0.10275342 -0.017163815 -0.03999932 -0.11627812 0.05635481
-0.04015026 -0.023222668 -0.11090918 0.058138363 0.1231181 -0.007950181 -0.059796248 0.11715202
0.123719536 0.07805239 0.002456334 -0.10091462 -0.08170472 0.021188587 0.05737047 -0.06385947
-0.04747658 0.11200861 0.017772118 -0.03101734 -0.09972495 -0.089777224 -0.04606136 -0.05107301
0.05068712 -0.09308403 -0.03660798 -0.07851757 -0.10381618 -0.031877443 -0.0044795377 0.08819827
0.057096176 -0.02530267 0.0029674552 0.02095631 -0.0736704 0.013869981 0.033289157 0.08641342
-0.070797645 0.007934755 -0.060580973 -0.101466104 0.012214917 -0.065931655 0.094661795 -0.034795813
-0.006777674 0.0209172 -0.101478785 0.097266 -0.008219254 0.015663385 0.077896394 0.044605337
-0.075419754 0.04730129 -0.049215898 0.07761421 0.09696129 -0.043619066 -0.037573118 0.072914995
-0.08815193 -0.018025255 -0.14651792 -0.009736767 -0.0010745161 -0.06233055 -0.016700912 0.054243084
0.059936818 -0.026813414 -0.022279283 0.11404414 0.05210445 -0.07736665 -0.022093045 0.11198927
0.12933949 -0.06279665 -0.04003757 -0.03457993 0.081380986 0.093796246 0.03016969 0.07722212
-0.11271296 0.058571376 -0.049297366 0.024925807 0.057100147 0.119449615 0.054006558 0.04911435
-0.041771594 0.11552494 -0.064901456 0.02509168 0.10261157 0.088014655 0.10671504 -0.09211028
0.0052427626 -0.07626238 0.022514166 -0.14475234 -0.0019681726 -0.028806154 0.07147307 -0.031865206
-0.058946528 -0.029338226 -0.04531799 0.071697295 -0.09402807 0.014973564 0.03656978 -0.092215486
-0.040341698 -0.09887491 -0.05238603 -0.049949028 -0.029234983 -0.0141871 0.12928995 0.056816872

rnn.bias_ih_l1 f4 [64]
00000000: f734 b2bd 4dd5 0c3d b71e bfbc baee e4bb
00000010: 45b2 583d 6be7 96bd 5509 c63b 4fd0 93bd
00000020: 0ba6 233d 7b2c bebd 79bf 873d e99e 5f3d
00000030: 662a 90bc 6221 603d 72a2 ab3c ad55 3f3c
00000040: b4e3 0a3d f5a2 28bd 7784 433c 44e6 b63d
00000050: 6c57 57bd 001c 333c 0319 b53d e80b 76bd
00000060: 9323 03bd dfb8 87bd 524f 233d 3ea0 f53d
00000070: 4b44 2ebd 3992 8e3d 4095 343c 87e8 bfbc
00000080: 2c1a 0c3d 1b55 82bd eb2e 853d 31a6 cdbc
00000090: 0c70 743d 3673 96bd e993 e43d 4981 bcbc
000000a0: 12f4 d53d e56f b8bd 55d3 89bd eea8 223d
000000b0: 59c9 1cbd 4f36 163d 8851 ddbb 395f 513d
000000c0: 04a3 ed3c 7647 273d aa42 aa3d 59ee 573d
000000d0: 08dc 41bd abc2 e33c 1da1 8d3d ac7a cbbd
000000e0: e162 6e3c b31d 4dbd 24e0 eaba 27e1 9cbd
000000f0: a256 adbd a96c ef3d b038 1cbd e7c1 80bd
-0.087015085 0.034383107 -0.023330076 -0.0069864662 0.052904386 -0.07368358 0.006043593 -0.07217466
0.039953273 -0.09285828 0.066283174 0.054594908 -0.017598342 0.054719336 0.020951483 0.011678142
0.03390856 -0.041171033 0.011933438 0.089306384 -0.052573606 0.010931969 0.08842661 -0.06006995
-0.032016348 -0.06627058 0.039870568 0.119934544 -0.042545598 0.069614835 0.011021912 -0.023426307
0.034204647 -0.06363889 0.065030895 -0.02510366 0.05967717 -0.073461935 0.11161024 -0.023010867
0.10446943 -0.09005717 -0.067297615 0.039711885 -0.038277958 0.036672886 -0.006754104 0.051116202
0.029008396 0.040839635 0.083134964 0.05271754 -0.04732898 0.027802786 0.069154955 -0.09935507
0.014549942 -0.05007715 -0.0017919582 -0.07660132 -0.084637895 0.11690647 -0.03814 -0.06286984

rnn.bias_hh_l1 f4 [64]
00000000: 6e34 7b3d 802f 623d 0dc0 7abd 989c 2abd
00000010: fe1b 6fbd c8db 82bd 19e5 b43d 9228 b73d
00000020: e91f cabd c371 c53d 2180 d73d 3b43 19bd
00000030: 7253 94bd 5385 9cbc 000c 84bc 7582 6b3d
00000040: 29a0 eb3d 2a69 e1bd 6ba8 8c3d 375a 733d
00000050: bace 7c3c e14a 8b3d 9828 a4bd 3906 6cbd
00000060: 0c7d 5f3d abf1 dc3d 1633 17bd 4b64 653d
00000070: 640f e63c 2190 e33d 2b0f c1bd 3ce2 9abc
00000080: 0508 243d 3f93 f43d 076c 28bd 84c8 4e3b
00000090: 3d0c 7d3d 6433 d3b9 5ba7 5e3d 2f13 b8bd
000000a0: f6c7 bb3d 8679 b63d 36f6 84bc 3514 bfbd
000000b0: 75a6 a73d 5ce2 e43d 30ec 5f3d 69d2 f33c
000000c0: d2fd afbd ea7e c8bc 112a 023e c714 50bd
000000d0: fb4b 82bd 3cb5 a33c 8185 7abd 6c8a e43d
000000e0: f5f1 43bd e9ae 003e db88 073d 6db2 36bd
000000f0: 003a 563d f5f9 a6bd 6c1c 5dbd 62f8 e0bd
0.061329298 0.05522108 -0.06121831 -0.041653246 -0.058376305 -0.06389576 0.088327594 0.08943285
-0.09869368 0.09640839 0.105224855 -0.03741763 -0.072424784 -0.019106543 -0.016119003 0.05749746
0.115051575 -0.110063866 0.06868061 0.059412207 0.015430147 0.068013914 -0.08015555 -0.057623122
0.054562613 0.10788282 -0.036913954 0.05600385 0.02808351 0.11111475 -0.09426721 -0.018906705
0.04004671 0.119421475 -0.041118648 0.0031552622 0.06177925 -0.00040283345 0.05435882 -0.08988034
0.09168999 0.089098975 -0.016230684 -0.09330026 0.08186046 0.11175987 0.054668605 0.029763417
-0.08593334 -0.02447458 0.1271136 -0.050801065 -0.063621484 0.01998388 -0.061162475 0.111592144
-0.04783817 0.12566723 0.0330895 -0.044603754 0.052301407 -0.08153144 -0.053982183 -0.10984875

fc.weight f4 [5, 64]
00000000: 3192 b5bd 8a14 32bd 6cd1 923c ea97 12bd
00000010: 3ddd b13c 74df e9bd 972d 263e 7294 25be
00000020: 9608 f03d 949c b83d 6f7d 29bd b7ec 24bc
00000030: 9d3f 633d ccc7 ba3d 3855 33be dfb3 07be
00000040: 8040 dcbd 55e1 acbc 675f 24bd fc57 fe3d
00000050: bc64 d9bc 6d35 f93b 460b 21bc b3a9 95bd
00000060: be7b 0cbe 8482 cdbc 9144 ecbc 1d34 efbd
00000070: 29d8 5e3d 28ac 90bd a050 2f3e ca8b 02be
00000080: 4614 a7bd 4a77 1a3e 1e3c f1bd 167c ccbd
00000090: 7bc2 e13c 22fa 02be dbfa debc 5ceb a8bd
000000a0: e7d9 cdbd 450a a7bd 7a0a 873c fad9 273e
000000b0: cdde 163e 511c 2c3d e3d4 0b3e c2e1 02be
000000c0: bd7e 19be 2029 a93c 252b 23be fe30 40bd
000000d0: 63fd 2f3e a87b 283c 169c fa3d 4464 733d
000000e0: 6866 00be 791d 123e 88da 23be af5c a7bc
000000f0: 9c34 0dbe d083 1f3e 788b 713d b7ab 6dbd
00000100: 36f8 0c3d c9a3 97bd f657 333e 804e f0bd
00000110: 96dd 163e e726 a7bd 40ac 323d a245 32be
00000120: 6c19 353a 0ca8 a03d ff4d d73c b393 6ebc
00000130: ba7d ea3d 61fe 923d c79c 1ebe a983 3b3d
00000140: 841c f1bd 0b5d 903d 312a dcbd ea42 063e
00000150: e0a1 27be 9cbe d9bd 7974 49bd fcb9 9a3a
00000160: a4cb 96bd d27f 283e 6d27 d0bd cb93 c8bd
00000170: c20a da3d 7180 4dbc a878 b1bc 6631 2cbe
00000180: a5a6 24be 30a0 9ebb 3890 16be 505e 12be
00000190: d83c 2cbe 6836 08bb 1380 053e 04b5 9038
000001a0: 8f11 223e aec9 0c3e b21c d4bd 6b05 7d3d
000001b0: a123 3e3c 441a 963c 0a43 243e cd72 06be
000001c0: 60e1 263c 83b9 1cbd 03f5 1fbe ab46 143e
000001d0: b76d 0f3e 0307 f83d e77e f33c 0351 9f3d
000001e0: 0939 99ba a51d f83d 2766 dbbd 3755 bc3d
000001f0: 6e90 1abe 82cb 20bc 9101 bbbd 62aa e83d
00000200: 2e40 44be 6f2a 07be cd0b eabc 87f0 e1bd
00000210: 9294 8fbc b671 c43c 44a8 173e 1552 cfbd
00000220: 7642 633d 9dff 4c3d f853 073e ee8c a03d
00000230: 54d6 e03d 340f f8bc 0ff5 0c3d 7c45 23be
00000240: d834 17bd 8a16 253c c2ce c0bd 80af 05bb
00000250: 51f2 bbbd ab83 39be f93e 5abd 42bd 2b3e
00000260: 94e3 233c b60c fb3d 3ba2 d2bd cf36 76bd
00000270: 4ed1 2c3e 108c 3cbe b343 263e e0e4 07bd
00000280: b24d 51bd dbe2 bf3d 04cc b4bc 5321 12be
00000290: 6e64 0dbd 33d7 c8bd 5230 573d 8c57 e6bd
000002a0: 3509 383d 2bc2 023e eeae 3cbd a2c3 3d3e
000002b0: 734c 433d 34c9 b93d b383 043e 78ae a93c
000002c0: 0880 1abe 4ee2 ed3d 4308 423d 408e c13d
000002d0: 6729 cbbc 0bdc 7e3d 9b42 073d 3296 b73d
000002e0: e51f 8d3d fa16 05bd 6280 7bbd 8a7e e43d
000002f0: 68b7 babd c442 ff3d 0897 38be 8071 423e
00000300: 6a9e f3bd b521 ed3c aec3 b33d 8ed4 733d
00000310: 3b7f 003e 4c85 07be 44b8 8e3d d1ae c9bc
00000320: f5ee b13d 47c0 fa3d 9d51 e23d cfd4 573d
00000330: cb77 253e 33a1 f43d 65c4 e63c b20a b4bd
00000340: 0c61 2fbe 747d 9b3c 56d5 183d 2957 e83d
00000350: ce85 31bd 1535 58bd b4ec c9bd 1737 863d
00000360: f67e 37bc 7ecb 183e 54cf bcbc 2cf4 16be
00000370: 5d08 0fbd 7e91 93bd d133 8f3b caf1 16be
00000380: 844a db3c a45c fabd 5929 f1bd d9a6 5c3d
00000390: 4c4e fabd cd5f 0bbe 81a3 c53d 1b13 27be
000003a0: ab0e 1e3c eccb e03d 0812 65bd f01b 94bd
000003b0: a5c6 a43d 26e1 183e 9105 55bb 3f36 bcbd
000003c0: 3175 3a3d 428b 0a3e 7dc7 ddbd 4f3a 9f3d
000003d0: dca5 013e ee9d e63d 9d25 f53d 5c52 163e
000003e0: e715 0ebd 17ac 8fbd dd6d 25be d412 50bc
000003f0: b3d4 1dbe b92f 8a3d 898f 9f3c f15f 533d
-0.088657744 -0.04347662 0.017922126 -0.035789408 0.02171194 -0.114195734 0.16228329 -0.16169909
0.11720388 0.0901424 -0.04137939 -0.010066203 0.05548059 0.091201395 -0.17512977 -0.13252209
-0.1075449 -0.02110354 -0.040130045 0.124191254 -0.026537292 0.007605246 -0.009829348 -0.07307758
-0.13719079 -0.025086649 -0.028841289 -0.11679862 0.054405365 -0.07064086 0.171206 -0.12748638
-0.08158164 0.15084568 -0.117790446 -0.09984605 0.027558556 -0.1279073 -0.027219227 -0.08248016
-0.10051327 -0.08156256 0.016484488 0.16391745 0.14733429 0.042019192 0.13655429 -0.12781432
-0.14989753 0.020649493 -0.15934427 -0.046921723 0.17186503 0.010283388 0.12236802 0.059421793
-0.12539065 0.14269055 -0.16001332 -0.020429937 -0.137896 0.15577626 0.0589709 -0.05802509
0.0344164 -0.074042864 0.17514023 -0.11733723 0.14732966 -0.08161717 0.0436213 -0.17409375
0.000690839 0.078445524 0.026282309 -0.014561581 0.11449762 0.07177425 -0.15489493 0.045779858
-0.11773017 0.070489965 -0.10750235 0.13111463 -0.16370344 -0.10632059 -0.049183343 0.0011804695
-0.0736306 0.1645501 -0.1016377 -0.09793814 0.10646583 -0.01254283 -0.021663979 -0.16815719
-0.16079195 -0.004840873 -0.14703453 -0.1429379 -0.16820085 -0.0020784382 0.13037138 6.900172e-05
0.1582701 0.1374881 -0.10357036 0.061772745 0.011605174 0.018323071 0.16041198 -0.1312973
0.0101855695 -0.038262855 -0.15620808 0.14480083 0.14006697 0.121107124 0.029723598 0.07779124
-0.0011689971 0.12115029 -0.107128434 0.09195941 -0.15094158 -0.009814145 -0.09131158 0.11360623
-0.19165108 -0.13199781 -0.02857008 -0.11032205 -0.017526899 0.023980003 0.14810282 -0.10123078
0.055483304 0.05004846 0.13215625 0.0783938 0.1097838 -0.030280687 0.034413394 -0.15944475
-0.03691563 0.0100761745 -0.09414436 -0.0020398796 -0.091770776 -0.18116634 -0.05328271 0.16771415
0.010002989 0.12258284 -0.10284849 -0.060110863 0.16876718 -0.18412805 0.16236763 -0.033177257
-0.051099487 0.09369441 -0.022069938 -0.14270525 -0.034519605 -0.09806671 0.052536316 -0.11247167
0.044930656 0.12769382 -0.046065263 0.18531659 0.04768033 0.090715796 0.12940864 0.020713076
-0.15087903 0.1161543 0.04737116 0.0945096 -0.024800016 0.062221568 0.033022504 0.08964194
0.06890849 -0.032492615 -0.061401732 0.11156948 -0.09117013 0.124639064 -0.18026364 0.1898861
-0.118954495 0.028946737 0.08777557 0.05952888 0.12548535 -0.13234442 0.0696874 -0.024619492
0.086881556 0.12243705 0.11050723 0.052693184 0.16158979 0.11944809 0.02816982 -0.087911025
-0.17126864 0.01898072 0.037312828 0.113447495 -0.043340497 -0.052784998 -0.09859601 0.06553476
-0.011199703 0.14921376 -0.02304808 -0.14741582 -0.034920085 -0.07205485 0.0043701907 -0.14740673
0.02676893 -0.12224701 -0.117754646 0.053870056 -0.12221965 -0.13610764 0.096503265 -0.16315882
0.009647052 0.10976395 -0.0559254 -0.07231891 0.08045701 0.14929637 -0.0032504539 -0.09190034
0.04552192 0.13529685 -0.10829065 0.07774793 0.12660927 0.112605914 0.11970065 0.14679855
-0.034688856 -0.070152454 -0.16155191 -0.0126998015 -0.1541317 0.067473836 0.019477623 0.05160517

fc.bias f4 [5]
00000000: 4baa 673d 0ae5 d13d 4fcf c63d 02d1 73bc
00000010: 3d26 5d3d
0.05655889 0.10248764 0.0970751 -0.014881374 0.053991545
