nasdaq_trading_bot/models/rnn/best_rnn_model.pth (torch, 59701 bytes, 10 tensors)

rnn.weight_ih_l0 f4 [64, 16]
000000 c2 b2 76 bc bd 9d 34 3c 50 5e cd bc 9d 04 d0 bd
       -0.015057268 0.011023936 -0.025069386 -0.1015713
000010 4c 33 ef 3c 3a 15 1f bc 6f cc b7 3d 08 3d 75 bd
       0.029199265 -0.009709651 0.089745395 -0.059872657
000020 8c db 1a 3d b4 c2 28 3d 65 42 33 bd b4 c3 77 3d
       0.037807032 0.04120131 -0.04376449 0.06048937
000030 29 65 84 bd 19 5a 3d 3c 9a e4 01 3d ec 61 c0 3d
       -0.06464607 0.0115571255 0.031712152 0.09393677
000040 8a e9 38 3d 55 e8 64 3d a1 30 06 bd 27 3c 87 bd
       0.045144595 0.05588563 -0.03276122 -0.0660327
000050 82 74 f2 3d b7 60 c9 3d cd 8f ce 3d 44 5f 59 bd
       0.11838628 0.098329 0.100860216 -0.053069368
000060 09 f2 c5 bd ee 62 94 bd cd 85 a1 3c d2 c4 a7 3d
       -0.09665305 -0.07245432 0.019717121 0.08191837
000070 7a 7a 2f bb f3 ef a6 bc 47 23 2b 3d 47 06 eb 3c
       -0.0026775883 -0.020378089 0.04178169 0.028689517
000080 5c d2 05 bd 71 bd a2 bd 8a 77 01 3d 3e b0 9e 3d
       -0.032671317 -0.07946289 0.031608142 0.07748459
000090 32 44 98 bd 46 9c c6 bd cd 61 7a 3d 7c 71 18 3e
       -0.07434882 -0.096977755 0.061128426 0.14887041
0000a0 34 a0 bb 3d 85 88 ab bc 57 df 59 3d e6 30 54 bd
       0.09161416 -0.020939121 0.05319151 -0.051804446
0000b0 81 b6 d5 ba a8 87 d7 bc c1 0e 14 3d e0 e1 00 be
       -0.0016305001 -0.026309803 0.036146883 -0.12586164
0000c0 b8 2f 03 3d a5 01 20 bd 8e b6 4d 3d 43 9e bb bd
       0.03202793 -0.03906407 0.050222926 -0.091610454
0000d0 cf de 3f 3d 17 76 92 3d bb ef 46 3c 4e 42 73 bd
       0.046843346 0.0715143 0.012142117 -0.059389405
0000e0 3b 89 c8 3c 6a a7 66 3d 2d 5c 64 bc 03 b4 cb 3c
       0.0244795 0.056312002 -0.013937992 0.02486611
0000f0 91 73 b6 3d 78 6b f1 3d b0 04 c7 bd 67 df 1c be
       0.08908761 0.11788076 -0.09717691 -0.15319596
000100 20 50 a9 3c 47 62 d6 bc da 26 2c bb d2 69 66 bd
       0.02066809 -0.02616991 -0.0026268275 -0.056253262
000110 91 2b b8 3c 81 8c 87 3d 9b 21 80 3c 97 e4 32 bd
       0.022481712 0.06618596 0.015641024 -0.04367503
000120 b3 40 22 bd d2 69 b2 3d a1 5b fc 3b b6 3c 7b 3d
       -0.039612483 0.0871159 0.0077013527 0.061337195
000130 17 62 ba bd 53 a2 ec bc d3 ca ae bd 66 b5 82 bc
       -0.091007404 -0.028885996 -0.085347794 -0.015955638
000140 83 3c ae bd 08 17 64 bd c1 e4 e1 bd e0 3f 41 39
       -0.085076354 -0.055686027 -0.110299595 0.0001842971
000150 60 97 0e bd 2e 0f 02 3c 8c 0c 3d 3d 4c 28 29 bd
       -0.03481233 0.007938189 0.046154544 -0.041298196
000160 cd e8 ee bd 5e 80 0e be d5 0c 1e bd ea 19 b2 bd
       -0.11665497 -0.13916156 -0.038586456 -0.08696349
000170 2b 54 e9 3c d7 8b 4f 3d 45 83 05 bd 97 d0 8c bd
       0.028482517 0.05067047 -0.03259589 -0.06875723
000180 0b ff 9a bd 2c b7 55 3d 1c 06 12 bc 14 f5 e7 bd
       -0.07568177 0.05217664 -0.008912589 -0.11326042
000190 16 2b b7 3d 09 e3 69 bd bd 11 64 bb 3b 94 9c bd
       0.08943765 -0.057101283 -0.0034800612 -0.0764546
0001a0 b4 7a ff bd 58 2f 29 bd 76 cb 43 3d b9 36 10 bd
       -0.12474576 -0.041304916 0.047801457 -0.035208438
0001b0 57 f6 46 3d c1 6b 83 bd 42 64 f5 bc 62 03 09 be
       0.04857477 -0.06417037 -0.029955033 -0.13380197
0001c0 40 f2 c5 bd c3 1c ea b9 dd 0c 2e 3d 87 26 40 bd
       -0.09665346 -0.00044653387 0.042492736 -0.046911743
0001d0 28 05 ad bd 5b 06 ea 3c d2 31 2d bd da 7d 4e 3d
       -0.08448249 0.028567484 -0.04228384 0.05041299
0001e0 37 35 bb 3d ea 3a 3e bd e8 81 b1 3d 96 b1 dd 3d
       0.09141009 -0.046442904 0.08667356 0.108248875
0001f0 12 78 e1 3c 21 0a 27 3c 78 8c b4 3d ad b7 e6 3d
       0.027523074 0.010195286 0.08815855 0.11265502
000200 92 94 6b 3d 4b 7b 35 3d 72 6a 85 bc 9c 31 dc 3d
       0.057514735 0.044307034 -0.016286109 0.1075165
000210 7d aa 86 bc c5 bb 2e bc ff a6 58 3d d9 88 bc 3d
       -0.016438717 -0.010664885 0.052893635 0.09205789
000220 e2 e3 ff 3d 2d be f4 3c 79 10 74 3c f1 b8 4a 3d
       0.12494637 0.02987584 0.0148965055 0.04949278
000230 6b c4 90 3d 9f 07 05 bc a1 e3 bc bd 16 5b 98 bd
       0.07068714 -0.008119493 -0.09223104 -0.07439248
000240 f0 e8 14 3d 51 10 19 3d ff ba 8f bd 93 10 ff 3d
       0.03635496 0.037369076 -0.070180885 0.12454333
000250 a4 bf 01 3e 4c 36 02 3d e9 b1 74 3c 3b db d6 3a
       0.12670761 0.031790063 0.014934995 0.001639224
000260 4a 4a ff bd 18 5a b7 3d 41 4c 22 3d c3 8d 18 3d
       -0.124653414 0.08952731 0.039623503 0.03724457
000270 1f 3d f4 3d d6 35 3a 3d 70 e1 f8 bc b7 97 66 3c
       0.119257204 0.0454615 -0.030380934 0.014074258
000280 2f d5 27 3d 52 f1 5c 3d 89 b0 f5 3c 6d 45 61 bd
       0.040974792 0.05394108 0.029991405 -0.05499785
000290 16 93 84 bd cd 90 84 bd ed 2a a8 bd 04 2c 09 3e
       -0.06473367 -0.06472931 -0.082113124 0.13395697
0002a0 1b 7c 7f 3d c3 8f 26 bd b4 a0 35 3b 55 7b 0f bd
       0.062374216 -0.040664446 0.0027714195 -0.035029728
0002b0 da 4e 19 3d ae 3f 85 3d ff 6e 23 bd d6 c7 11 be
       0.037428714 0.065062866 -0.039900776 -0.14236388
0002c0 85 60 ad bd 09 e3 91 3d 90 d5 15 3c 0c 51 c4 3c
       -0.08465675 0.07123382 0.009145156 0.023964427
0002d0 1b 93 ea 3d 2f e0 e6 bd ac 52 81 bd 4a d5 c8 bb
       0.114538394 -0.112732284 -0.063145965 -0.0061289417
0002e0 5e 4b b2 bd 6e 8d 0d bd cc 69 4c bd 4a 4a 1f 3d
       -0.087057814 -0.034558706 -0.049905583 0.038889207
0002f0 c3 d9 c0 3d df bf 13 3d 72 df 67 3d 55 90 d8 bd
       0.09416535 0.036071654 0.05660958 -0.10574404
000300 3a 8a 03 be 4a ef 84 3d 23 75 2a 3d 87 f3 c5 3d
       -0.12845698 0.06490953 0.041615617 0.0966559
000310 8b dd 8e bd fb 00 13 3d 77 af 9d bd 6d 8e 1b 3e
       -0.0697585 0.035889607 -0.07699483 0.1519105
000320 8f 66 92 3d 91 5b 3e 3b 1d 93 a3 bd 8d c0 a9 3d
       0.07148468 0.0029046277 -0.07987044 0.08288679
000330 81 f8 e0 3d 00 b3 f0 bb 33 f6 b4 ba 60 62 ad bd
       0.10984898 -0.007345557 -0.0013806283 -0.08466029
000340 ad 0f a4 bd 1d fa 75 3c d4 24 02 b9 5e e9 f0 3d
       -0.080108024 0.015013245 -0.00012411486 0.11763261
000350 0c 6b 80 bd 2e 28 ea 3c bb 50 69 bd ce 46 d0 bb
       -0.062704176 0.028583612 -0.056961756 -0.006356097
000360 56 17 e4 bc ec 6d 5c bd 7a 31 3c 3d 56 4b bf 3d
       -0.027843159 -0.053815767 0.045945622 0.09340541
000370 e1 c9 3d bd 39 9c fb bc 49 6c ae 3d 1e 42 cc bd
       -0.046335105 -0.030714141 0.085167475 -0.09973548
000380 da 0e 1e 3d 1f 68 5e 3b 57 ff 85 bd 11 c5 9f 3d
       0.038588382 0.0033936573 -0.06542843 0.07801259
000390 57 80 7f bd cd 68 7d bd 09 0d f2 bd 2b c6 10 be
       -0.062378254 -0.061867524 -0.118188925 -0.14138095
0003a0 e9 22 aa bd c6 8e 1d bd d3 c2 54 3d 5d b0 67 3b
       -0.0830744 -0.038466237 0.05194361 0.0035352923
0003b0 19 f9 78 3d f2 33 b5 bd fb e3 56 bb bd 18 c0 3d
       0.060784433 -0.088477984 -0.0032789696 0.093797185
0003c0 09 b4 8b 3c 46 40 fb b9 b7 11 bd bd 26 86 c5 3d
       0.01705362 -0.00047922338 -0.092318945 0.096447274
0003d0 5d f3 b1 3c d5 8c 39 bd 90 c4 05 be c4 6a cd 3b
       0.02172249 -0.045300324 -0.13063264 0.006268831
0003e0 c9 13 e8 3d 81 4d d2 bc 76 e6 c2 3d 2c 70 ac bc
       0.11331899 -0.025671722 0.09516613 -0.021049581
0003f0 8f 30 ec bd 6b f2 83 3d fc 8d 96 3d af 9a d4 3d
       -0.11532699 0.06442722 0.073513 0.10381066

rnn.weight_hh_l0 f4 [64, 64]
000000 4c 0a e7 bd 15 ed 84 3d 0f 10 46 3d e1 f6 de bd
       -0.11281261 0.06490532 0.04835516 -0.10886932
000010 f0 f1 9e bd 6a aa a3 3d d9 e3 3f 3c 07 8c aa bd
       -0.0776099 0.07991488 0.011712038 -0.08327489
000020 6e f1 2a 3d 49 fd d9 3d 15 bf da 3c 92 0c aa bd
       0.04173415 0.106440134 0.026702443 -0.08303179
000030 d8 34 05 3b 4e 61 e6 bd a4 ea 09 3e 1c f5 af bd
       0.0020325687 -0.11249028 0.13468415 -0.08591673
000040 9f ee 9f bd a0 cc ad bd 8a fe d8 3d 31 80 bf bc
       -0.07809185 -0.08486295 0.105954245 -0.023376556
000050 e5 94 97 3d bc 8b aa 3d 7c df f4 bc 78 47 86 bd
       0.07401446 0.083274335 -0.029891722 -0.065566
000060 0a 84 82 3d 64 76 4b 3d ad 06 c3 3d 77 62 2d 3d
       0.06372841 0.049673453 0.09522758 0.04233023
000070 19 b9 a2 3d 4d 58 c7 bd 19 d9 b1 3d c9 39 c2 3d
       0.07945461 -0.09733639 0.08683986 0.09483678
000080 40 29 56 3d 3c 9d b4 bd 5c aa e9 3b ee f7 06 bc
       0.052285433 -0.088190526 0.007130904 -0.008237822
000090 95 50 55 bd 8d dd c0 3c 74 07 f0 3c 2b f3 2c bd
       -0.052078802 0.023543144 0.029300429 -0.04222409
0000a0 c4 eb b2 3d 98 16 30 3c 0b 3e b9 3d 4f 24 a7 bd
       0.08736375 0.010747574 0.09045037 -0.08161222
0000b0 25 09 8c 3d 76 3b f3 3d e0 52 17 bd e2 8c 36 3d
       0.06837682 0.11876576 -0.03694427 0.04456795
0000c0 e9 c0 0a 3e 49 d9 06 bd 03 ae 5d 3d 3a a2 07 3b
       0.13550152 -0.032922063 0.05412103 0.002069606
0000d0 b6 a7 ce 3d 5b 33 cf 3d eb 83 06 bd d1 ce 48 3c
       0.10090582 0.10117217 -0.03284065 0.01225634
0000e0 83 74 63 3d 8f 29 e1 bd 70 86 1d 3d 7a a1 fc bc
       0.055531036 -0.10994255 0.038458288 -0.030838717
0000f0 c9 81 8a 3a 62 5a 10 bd f9 40 24 bd 4e bb 8e bd
       0.0010567243 -0.035242446 -0.040101025 -0.06969319
000100 cb a9 81 3c 48 32 48 bd 0f a7 a4 3d 43 c8 80 bd
       0.015828034 -0.048876077 0.080396764 -0.06288197
000110 45 af 06 be 81 ce ae 3d 12 4b f2 3d d4 cd cf 3d
       -0.13152798 0.08535481 0.11830725 0.101466805
000120 37 76 dd 3d 5f d3 bd 3d b0 37 b4 3b 34 f4 c1 3d
       0.10813563 0.092688315 0.0054998025 0.09470406
000130 0b 7e 7a 3c 40 fd 7d 3b 77 f4 4b bd 1d a8 c1 3d
       0.01528884 0.0038755685 -0.049793687 0.09455893
000140 ab 3e ac bd 56 0f ab 3d a9 74 b5 bc 0f ac a0 3c
       -0.084103905 0.083525345 -0.022150354 0.019613294
000150 60 75 05 be 29 23 a2 3c 02 b8 45 bd 79 e0 96 bb
       -0.13033056 0.019792156 -0.048271187 -0.004604396
000160 6e b3 ad 3d 42 15 a3 3b 78 2d 85 3d a1 db 94 3d
       0.08481489 0.0049768994 0.06502813 0.072684534
000170 01 dc c7 bd 8c 6b dc 3d 90 e8 bf 3d 3d 15 ad bd
       -0.09758759 0.107627004 0.0937053 -0.084513165
000180 72 2a a7 bc a0 c6 d8 3b 96 66 89 3c 7f 0a 62 bc
       -0.020405982 0.006615475 0.01677255 -0.013796448
000190 8c ec e4 3d a6 3c 9d 3d ae b1 14 bd ea 62 df 3c
       0.1117793 0.076775834 -0.03630226 0.027268846
0001a0 64 67 db bd 05 3f 8a 3d 9a 52 a9 3d f2 89 34 3d
       -0.107130796 0.06750301 0.08267708 0.044076867
0001b0 9b 28 2a 3c 22 4f 77 bd 44 96 42 bd c4 89 1d bd
       0.010385658 -0.0603782 -0.047506586 -0.03846146
0001c0 dc 04 28 bd ba a9 fa bc d6 c0 e5 bd 41 59 a4 bd
       -0.04102026 -0.03059851 -0.11218421 -0.08024836
0001d0 ce fa bb bd e3 d4 b5 bd 50 ec 05 bc 54 ef ad 3d
       -0.091786966 -0.088784955 -0.008174017 0.08492914
0001e0 e7 88 57 3d bd 0e bd bd c6 35 da 3c 25 f8 83 bd
       0.052620795 -0.09231327 0.02663697 -0.06443814
0001f0 d9 cc 32 3d 19 53 a1 3a f0 97 dd 3d a9 b2 4b 3d
       0.04365239 0.001230809 0.108199954 0.04973093
000200 7f 8a f0 3d d5 6d e1 bd 73 c6 2f 3d 26 49 f2 3c
       0.11745166 -0.11007277 0.042913865 0.029575896
000210 7e 6c 72 bd a7 d1 b3 3d 4b b2 e6 bd c7 23 c2 bc
       -0.059185497 0.087802224 -0.112644754 -0.0236987
000220 88 94 ba 3d 19 71 20 bd 02 83 00 3e 1d 00 66 bd
       0.09110361 -0.03917036 0.12549976 -0.05615245
000230 ce b3 46 bd 77 ba a4 3c a6 7e f2 3b 9c 29 e7 3b
       -0.04851132 0.020108445 0.0074003516 0.007054521
000240 f4 99 4d 3d 03 d9 b8 3d 34 87 82 3d 4a 87 78 3d
       0.05019565 0.09025767 0.06373444 0.060675897
000250 3d 46 ee bd 85 0b 21 bd b2 f1 54 bd 93 2e a6 bd
       -0.11634491 -0.039317627 -0.05198831 -0.08114352
000260 7e 9c f3 3d 74 82 82 bd ea 32 90 3d 6e 54 8f bd
       0.11895083 -0.06372538 0.07040961 -0.069985256
000270 82 c1 f0 bc 44 9b bf bc b7 84 42 3d 55 14 0f bc
       -0.029389147 -0.023389466 0.047489848 -0.008732875
000280 7e 07 48 bd 2f 93 9a bd f3 94 47 3d e8 2d 14 3d
       -0.04883527 -0.07547604 0.048726033 0.036176592
000290 64 6a 34 3d 49 5a 62 3d fb dd 47 bd dd 85 e5 bd
       0.044046775 0.055261884 -0.04879568 -0.11207173
0002a0 78 67 ca 3c 4d de a5 3d fa 93 27 bd f8 54 93 bc
       0.02470754 0.08099041 -0.040912606 -0.017984852
0002b0 0a d2 65 bc f0 1e a0 3d 3c 5d 9f bd b2 9f 24 bd
       -0.014027128 0.07818401 -0.07781455 -0.04019136
0002c0 a1 79 45 bd d6 4b 81 bd f1 af 79 bd da 49 52 3d
       -0.048211697 -0.06313293 -0.060958806 0.05133996
0002d0 79 73 9f 3c a9 5e b0 3d 45 e3 eb 3d 0b 84 87 bc
       0.019464241 0.08611805 0.115179576 -0.016542455
0002e0 7a fe 0d bd 71 a1 e6 bd a4 6b b2 bd bd 8c e8 3c
       -0.034666516 -0.11261261 -0.08711937 0.028387422
0002f0 29 11 62 bd d8 44 cc 3d 9c 9f ac bb da 70 92 3d
       -0.055192146 0.099740684 -0.0052680504 0.07150431
000300 ff 08 58 bc de e3 00 3d c7 d5 0e bd 19 eb 33 3d
       -0.013185739 0.03146731 -0.034871843 0.04392538
000310 ed 31 ea 3d a3 ba a0 3d 3e 46 3f 3d 28 22 48 3d
       0.11435304 0.07848098 0.046697848 0.0488607
000320 db 48 77 bd 0b 5e 43 3d 3b 57 0f bc 7b 5e 16 3d
       -0.060372215 0.04769711 -0.008748825 0.036711197
000330 38 26 e8 3d df 7c 9b 3d 4b f5 7c 3d 8d df d0 3d
       0.11335415 0.07592177 0.061757367 0.10198889
000340 83 f1 0d 3e a8 c7 d5 3c cf 07 66 bd b4 98 d1 b7
       0.1386166 0.02609618 -0.05615979 -2.498585e-05
000350 ab 95 8c bd 48 de b8 3d dc ca 9f bc eb b4 1c 3c
       -0.068644844 0.09026772 -0.01950591 0.009564619
000360 14 66 e5 3d b2 c7 48 3d 99 d9 c2 bd 0a e8 fe 3d
       0.112011105 0.04901857 -0.0951416 0.12446602
000370 80 41 8c 3d d5 b1 92 bd 1c 29 c4 bb b7 89 41 bd
       0.06848431 -0.07162825 -0.005986346 -0.047250476
000380 a3 ae bb bd c8 18 a1 bd 40 df 6c bd 98 e9 c3 bb
       -0.09164169 -0.07866055 -0.057830095 -0.0059787743
000390 a8 9c e7 bc aa e4 ca bd 91 eb e7 3c a3 69 6f 3d
       -0.028272942 -0.099068955 0.028310569 0.058450352
0003a0 6a 0c ab bc 54 00 3d 3c 37 ae 32 3c 64 dc 37 3d
       -0.020879943 0.011535723 0.010905794 0.044887915
0003b0 2c 38 8d 3d 14 a9 f8 ba 50 fc df bd e0 ec 2d bd
       0.068954796 -0.0018971288 -0.10936797 -0.04246223
0003c0 49 aa 96 3c 58 0c 94 3c 7f cd ae bd b9 4b 1a bd
       0.018391745 0.018072292 -0.08535289 -0.03766987
0003d0 92 be f8 bc 94 6a b7 bd 7f 41 93 3d 1f e2 c1 3d
       -0.030364309 -0.08955875 0.07190227 0.09466957
0003e0 19 ae 0e 3c 25 48 58 3d 0c e9 6f bd 57 9e 30 3c
       0.0087085 0.052803177 -0.05857186 0.010779939
0003f0 26 87 23 bd 98 31 6f bc 2c 48 78 bd ad 50 24 bd
       -0.03992381 -0.014599226 -0.060615703 -0.040116

rnn.bias_ih_l0 f4 [64]
000000 74 07 b2 bd 60 89 48 bd da 73 a1 bd 43 c1 a2 3d
       -0.08692828 -0.048959136 -0.07883425 0.07947018
000010 21 6a e8 bc 8f 9c fa bc 5a c0 12 3d 0b ca e1 3d
       -0.028370919 -0.030592231 0.035827972 0.11024865
000020 d7 00 59 3d 5e cd a3 bd 82 2d 93 bd 88 29 2b 3d
       0.052979317 -0.07998155 -0.07186414 0.041787654
000030 87 99 3d 3d fb 26 3b 3d eb 4f 50 bd 9b 7e e0 3d
       0.046288993 0.04569147 -0.050857466 0.10961648
000040 0f a9 4e bd 7e f8 b6 bc d9 42 ba bd 91 b7 ad bc
       -0.050454196 -0.022335287 -0.090947814 -0.021205695
000050 64 64 3d bd 04 5a de bd d3 fc e3 bd 52 7b 2e bd
       -0.046238318 -0.10857013 -0.11132207 -0.042598076
000060 a6 a2 c3 3d f9 58 62 3d 88 aa 89 3c 4f 55 c6 3d
       0.09552507 0.055260632 0.016804948 0.0968424
000070 fe 45 05 3e ee 35 c8 bd 6c 92 9d 3d a2 44 3a bd
       0.13014981 -0.09775911 0.076939434 -0.04547561
000080 ce 26 ca 3d 66 ae ed 3d 12 10 da bc 34 f7 29 bd
       0.09870683 0.116055295 -0.026618991 -0.041495517
000090 28 7f e9 bd 2d ce dc 3c 09 17 51 bd 6e 10 10 3d
       -0.11401206 0.026953781 -0.05104736 0.03517192
0000a0 16 b6 19 3d 79 67 cd bd 99 95 ea bb 16 ac 3e 3d
       0.037527166 -0.100295015 -0.0071589467 0.046550833
0000b0 46 2b 94 bd 05 cd 3b bd bf 2d d6 3d c1 c0 02 3d
       -0.07234816 -0.04584982 0.10457944 0.031922106
0000c0 81 5d 2f 3d 0b 96 d9 ba 5a 92 0f bd 0a 1a ee 3d
       0.04281378 -0.0016600502 -0.03505168 0.1162606
0000d0 26 2e c9 3c 5d da da 3d 6b a7 bb 3c f0 7a 56 bc
       0.024558138 0.10686181 0.02290698 -0.013090834
0000e0 a4 98 5f bd 0f 8d ab 3d a3 45 95 3c de 05 aa 3d
       -0.05458893 0.08376514 0.018221682 0.083019
0000f0 ca 45 f7 bc be ca d7 bd cf e0 8f bd 2b a2 96 3d
       -0.030184645 -0.10536717 -0.07025301 0.0735515

rnn.bias_hh_l0 f4 [64]
000000 94 c2 9d 3d 20 ed 06 3d 80 70 4f bd ef 3b b2 bd
       0.077031285 0.032940984 -0.050644398 -0.08702838
000010 1f 9f f4 b9 c4 54 6f bd fb 0c 6e 3c ea cb cb bc
       -0.0004665786 -0.05843045 0.014529462 -0.024877507
000020 aa 53 dc bd 84 03 c4 bd fc 6a 24 3d 78 f6 97 3d
       -0.10758145 -0.09570983 0.04014109 0.07420057
000030 c3 40 c9 3d 0a 37 80 3c e4 16 0d 3e 04 39 13 3c
       0.098268054 0.015651245 0.13778263 0.008985762
000040 c4 cd 36 bd 50 dd 3d bd f2 7d 2c bd 82 8c a4 bc
       -0.044629827 -0.04635364 -0.0421123 -0.02008653
000050 b8 04 88 bc bd 65 ab 3b b7 68 94 3d 3f c3 3b bc
       -0.016603813 0.005230634 0.07246535 -0.0114601245
000060 cf ee 80 bd e5 8d 97 bd 11 8a c2 3d 6f 76 f1 bd
       -0.06295549 -0.07400111 0.0949899 -0.117901675
000070 b8 89 0b 3d 45 3e e8 3b 99 db 9d bd 22 b1 1e bc
       0.034066886 0.007087501 -0.077079006 -0.009685786
000080 fb 36 02 3b 9e be b4 bc 89 f1 79 3d 6e 40 77 3c
       0.0019869197 -0.02206355 0.06102136 0.015091045
000090 0e 0b 0a bd 84 16 9d bd 79 69 8f bc 41 92 d6 bd
       -0.03370195 -0.0767031 -0.017506348 -0.104771145
0000a0 ed 68 0c bd 21 85 f2 3d b6 aa 6d 3d 9a f6 51 bd
       -0.034279753 0.118417986 0.05802413 -0.05126057
0000b0 50 65 d6 3d 0d 0a af bd ea ec 26 3d 04 b5 20 bd
       0.104685426 -0.08546839 0.040753283 -0.03923513
0000c0 1d 7f 51 3c d0 08 df 3d 0b 79 2a 3d 9f 4e 8a bd
       0.012786654 0.10890353 0.04161934 -0.06753277
0000d0 15 cb f8 3c aa 7b 74 3d 21 21 ff bd ae a6 d9 bd
       0.030370275 0.059688248 -0.12457491 -0.10627495
0000e0 6a 3d dc 3d 85 1f 08 bc e9 96 3c bd 11 2b 98 bd
       0.10753901 -0.008308296 -0.046042357 -0.07430089
0000f0 6e f2 f7 3d 4e d6 e5 bd a3 6e d0 bd ef c7 9b bd
       0.12106787 -0.11222516 -0.10177352 -0.07606494

rnn.weight_ih_l1 f4 [64, 64]
000000 bf 2f e5 bd 26 fd d9 bd d9 e8 ef bb 06 5f 09 3e
       -0.111907475 -0.10643987 -0.007321459 0.13415155
000010 3f 71 ae bd c2 ad e0 3c a9 f2 0d 3e 20 28 67 bd
       -0.08517694 0.027426604 0.13862099 -0.05643475
000020 52 4b f5 3d 96 a9 8c 3d c4 fb 9f 3d 03 67 e8 3d
       0.11977257 0.068682835 0.07811692 0.11347773
000030 61 e3 13 3e b7 e7 47 3d 1a 92 9a bd 6e 7f 84 3d
       0.14442207 0.048804965 -0.07547398 0.06469618
000040 ec f3 d2 3c 0d 7f 2b bd 60 60 0e 3e d8 f3 ed bd
       0.025751077 -0.041869212 0.13903952 -0.11618775
000050 2b bd 7e 3d 50 d8 36 bd d5 56 6a 3d 38 cd e7 3d
       0.062192123 -0.044639885 0.057211716 0.11318439
000060 95 a4 e4 bd b1 dd f2 3d c6 26 00 3e 2a 7f c2 bd
       -0.11164204 0.118586905 0.12514791 -0.09496911
000070 ed 25 15 bd 5d 36 84 bd 39 ca d5 3d 9d e8 ce 3d
       -0.036413122 -0.064556815 0.104389615 0.10102961
000080 15 64 18 3e 7d cd 67 bd b6 f5 14 be 31 1e a8 3d
       0.14881928 -0.056592453 -0.14546856 0.082088836
000090 87 f8 28 bb 97 bf 96 3d 1f c1 95 bd 7c a2 4e bc
       -0.00257829 0.073607616 -0.073122256 -0.0126119815
0000a0 8a e9 3e 3b 8b d0 b1 bd ed 37 25 3e cf 1e 3b bd
       0.00291309 -0.086823545 0.16134615 -0.04568368
0000b0 f1 52 30 3d ab b3 ec bd a6 5d 6d bd 98 af 04 3e
       0.04304785 -0.115577064 -0.05795064 0.12957609
0000c0 fc db 6e bc 19 ed 6a bc b3 8a b6 3d 36 95 03 be
       -0.014578816 -0.014338755 0.089131735 -0.12849888
0000d0 7d 66 d8 bc 10 3a 1f 3e 68 41 8a bd fb a2 b4 ba
       -0.026416058 0.15549493 -0.067507565 -0.0013781482
0000e0 03 12 01 3c fe ab 16 be d9 09 db 3c db 84 af bd
       0.0078778295 -0.14714047 0.026738094 -0.08570262
0000f0 10 31 37 bd db 49 bd 3c 1e 46 21 bd 61 45 20 bd
       -0.044724524 0.023106506 -0.03937351 -0.039128665
000100 c6 f5 05 be cf 14 fc bd fb 74 12 3d fe ed bb bd
       -0.13082036 -0.123086564 0.035756093 -0.09176253
000110 31 cd 38 bd a9 8a 41 3d 80 c6 29 bd 8b 6d d8 3b
       -0.04511756 0.047251377 -0.04144907 0.0066048554
000120 39 f7 ed 3d ab a8 c7 3d 39 b4 67 bd 1a 63 a9 3c
       0.116194196 0.09748968 -0.056568358 0.020677138
000130 68 9b d0 3d 85 8d 1c 3d ae 08 17 be b4 92 07 3d
       0.101858914 0.0382209 -0.14749405 0.03309889
000140 5d b6 e1 3c 81 f6 34 3c 97 5d e4 3d e3 74 3c 3d
       0.027552778 0.011045099 0.11150663 0.04600991
000150 40 d2 d6 3c 04 19 c6 bc 65 3e a8 bd 64 fe b6 bd
       0.026223302 -0.02418185 -0.08215026 -0.0893524
000160 53 d0 ca bc 23 46 82 3d 20 53 b3 3d 05 11 3a bd
       -0.02475754 0.06361034 0.08756089 -0.045426387
000170 94 5d 0c be ef ec 08 be 5a df 07 3e 50 b4 d0 bd
       -0.13707572 -0.13371633 0.13268796 -0.10190642
000180 48 4a 43 3b fd d4 18 bd a9 74 4c 3d 0a 4c be bd
       0.0029798914 -0.037312496 0.049915943 -0.09291847
000190 b6 6f df 3c fc fa d0 bd d8 0a 8d 3d 97 1b 07 3e
       0.027274948 -0.102041215 0.06886834 0.13194118
0001a0 78 e0 66 3d 77 91 4b bd df a9 4a bd 6d c7 22 be
       0.056366414 -0.049699273 -0.049478408 -0.15896387
0001b0 f6 dd 91 3c a7 d8 83 bd 41 2b d3 3d 04 ac 9b bd
       0.017806035 -0.064378075 0.103109844 -0.07601169
0001c0 d7 14 0f bd 5c 1e a8 bd 6b 9a ca bd 3b e9 82 b9
       -0.034931984 -0.082089156 -0.09892734 -0.00024969302
0001d0 59 78 b5 3d e5 f1 4c 3b a7 92 99 bd e4 75 96 bd
       0.08860845 0.003127211 -0.07498675 -0.073467046
0001e0 b5 1d d3 3c 14 6f b3 3d f4 cb 8f bd 59 c5 8b bd
       0.025771001 0.08761421 -0.07021323 -0.068247505
0001f0 ba ea ad 3d c7 33 ca bd cd 45 47 bd 77 53 9f 3d
       0.08492036 -0.09873157 -0.04865055 0.077795915
000200 c0 f9 ea bd ec 48 6e bc 76 37 d2 bb cf a2 a4 bd
       -0.11473417 -0.014543753 -0.006415303 -0.08038866
000210 7b 05 c4 bc 40 79 c2 ba 6b 10 3c 3d 47 35 6d 3d
       -0.023928395 -0.0014837161 0.045914095 0.057912137
000220 7b eb 83 bd 71 3b be 3c 86 e0 6d bd f8 d5 ce 3c
       -0.06441399 0.023221703 -0.05807545 0.025248513
000230 88 09 66 3d 40 d7 d2 3d 42 79 51 bd 9d 35 96 bc
       0.056161433 0.10294962 -0.05114103 -0.018336112
000240 ec 77 91 bd b0 4a ce 3d db 6d 08 3e de 4a 0d bc
       -0.071029514 0.10072839 0.13323157 -0.008623807
000250 77 a8 3e 3b 17 5d 8d 3c 34 60 12 be 14 aa 87 bd
       0.0029092112 0.017256303 -0.14294511 -0.06624237
000260 00 ef 2b bd e9 a8 18 bd 10 72 d1 3d 70 b7 5d bd
       -0.041975975 -0.03727046 0.10226834 -0.054130018
000270 66 bf 37 3d 56 8b 48 bd a1 d4 0d 3e c0 c9 06 3d
       0.044860266 -0.048961006 0.13850643 0.032907248
000280 25 6b 96 bc 8f 16 5a bd 70 9c 01 bd 1a ef 8c bd
       -0.018361637 -0.05324417 -0.03164333 -0.068815425
000290 b4 69 73 3d bf ea 6b bd e0 f9 2c 3c 12 5a 9f bd
       0.05942698 -0.05759692 0.010557622 -0.077808514
0002a0 05 db b2 3d af 45 18 bc 4c 6c 08 bc 1d 68 62 3c
       0.08733181 -0.009293958 -0.008326601 0.013818768
0002b0 1b b8 16 3e 80 d2 c6 bd 4a 70 81 bd a7 d1 c1 3d
       0.14718668 -0.097081184 -0.063202456 0.09463816
0002c0 42 f0 00 3d 5d ee 0c bd 8b 11 80 bd a5 4c 6f bc
       0.031479128 -0.03440701 -0.06253346 -0.014605676
0002d0 d5 3c 1a 3d d5 bc 19 3e 62 4c d8 3d a0 14 f8 3d
       0.03765567 0.1501344 0.10561444 0.12113309
0002e0 68 64 f5 bd 13 55 9b 3d b1 11 65 3d b5 12 07 3d
       -0.119820416 0.07584586 0.055925075 0.032976825
0002f0 77 7f 61 bd b5 2b 00 be 60 90 f0 bd cc 01 1e be
       -0.0550532 -0.12516673 -0.11746287 -0.15430373
000300 4e 86 87 3c 91 8f b9 bd e3 5d 1d bd 04 d9 87 3d
       0.016543534 -0.09060586 -0.038419615 0.06633189
000310 c8 ce 07 ba 67 92 0e 3e e2 26 10 3e e1 65 c9 bd
       -0.0005180654 0.13923036 0.14077333 -0.09833885
000320 9d f3 ed 3d 70 b3 b5 3d 07 75 90 bd 43 cd b0 bd
       0.11618731 0.088721156 -0.07053571 -0.086329006
000330 5c a5 21 3e 0e 89 a9 3b aa 44 99 bd bd c3 21 be
       0.15785736 0.005173809 -0.074838 -0.15797324
000340 0f f7 93 3c 74 fc b7 3d 90 69 46 3d 6a e4 14 be
       0.018062143 0.089836985 0.048440516 -0.14540258
000350 05 4a 85 3d dd 1b 15 be 11 99 27 be c7 96 b1 3d
       0.06508259 -0.1456141 -0.16366984 0.086713366
000360 67 31 d5 bc 60 eb df 3d ee 22 5d bd 73 c4 0f 3d
       -0.026024533 0.10933566 -0.05398839 0.035099458
000370 83 1c 91 3d 7c 8b ab 3c 8d 30 5e bd e4 4c 25 be
       0.07085516 0.020940535 -0.05424552 -0.16142613
000380 70 ee bd 3d 5d ff 26 bc 94 3d b3 bd 4a 15 8d bc
       0.09273994 -0.010192719 -0.087519795 -0.017222065
000390 46 0b 62 bd 34 0d b3 bd 1a d1 a3 3d 0b 85 28 3d
       -0.055186532 -0.08742753 0.07998867 0.041142505
0003a0 d2 d8 75 3c fd 70 9f bd a1 b6 fb 3b 10 f6 33 3b
       0.015005307 -0.07785223 0.007681683 0.0027459897
0003b0 c0 55 51 3d 4d 2f 81 3c a6 e5 5d 3d d4 a3 40 bd
       0.05110717 0.015769625 0.054174088 -0.04703124
0003c0 b1 6c df bd d2 0e fb 3d 0f fe 32 bd 11 5d 1c bd
       -0.10909403 0.12258686 -0.04369932 -0.038174693
0003d0 88 28 d1 3d 67 8c a0 3d 0d d4 06 be ac f9 98 bd
       0.10212809 0.078392796 -0.13166828 -0.07469496
0003e0 ed 9f 59 3d 02 df 17 be 25 59 8f 3d e4 be 3a bd
       0.053131033 -0.14831164 0.06999425 -0.045592204
0003f0 d5 55 95 3d c3 6e 09 be 7a 9a 10 bd 78 24 0f be
       0.07291762 -0.13421158 -0.03530357 -0.13978755

rnn.weight_hh_l1 f4 [64, 64]
000000 a7 c7 65 3d ee de bb bc 0b 57 9e bd 7e 65 f8 bd
       0.056098606 -0.02293345 -0.07731446 -0.12128733
000010 8b 48 c3 bc 84 c2 f0 bd b3 43 e4 3d 02 00 0f 3e
       -0.023838302 -0.11755851 0.11145725 0.13964847
000020 fe 04 a4 3d 1d 8d 68 3c 75 8a f2 bc f7 47 8c 3d
       0.08008765 0.0141938 -0.029607037 0.06849664
000030 1f 72 bf bd 14 27 d8 3d 3d d6 d1 3d d5 d9 ca bd
       -0.09347939 0.105543286 0.10245941 -0.099048294
000040 1c 3d 15 bd a5 f1 ec 3c 01 83 ad 3d b9 ab e2 bb
       -0.03643523 0.028923819 0.08472253 -0.0069174436
000050 74 6b a3 bb 4c fe d1 bd 47 56 08 3d 1c 71 fc 3d
       -0.0049871746 -0.102535814 0.033285405 0.123262614
000060 f7 cb 80 3d ee 91 9c 3d 96 ea 4a bd dd 5e c6 bd
       0.06288903 0.076450214 -0.049540125 -0.096860625
000070 f2 fa d1 bd 4d fb bb 3d 28 45 51 3d a6 1e 23 bd
       -0.10252942 0.09178791 0.051091343 -0.03982415
000080 5e 22 03 bd c2 48 e3 3d 22 f6 76 bd a8 e1 a3 3d
       -0.032015197 0.11097862 -0.060293324 0.08002025
000090 26 5a c8 3d c4 fd 02 3d 11 73 28 bd 6d 87 11 3d
       0.097828194 0.03198029 -0.04112536 0.035529543
0000a0 4c 51 db bd 21 41 4a bc ec 60 85 bb f4 f2 cf bd
       -0.107088655 -0.0123446295 -0.004070392 -0.101537615
0000b0 43 4e 01 3e 01 6e 69 bd e3 32 b2 3d ce 09 84 3d
       0.1262751 -0.056989674 0.08701112 0.064471826
0000c0 a6 53 78 3d 4e 8f d4 3d 40 61 a5 bd f7 a7 ba bc
       0.06062665 0.10378896 -0.080751896 -0.02278517
0000d0 a1 9b 28 3d a0 e1 2b 3a 2c e0 88 bd ee 1b 78 3c
       0.041164044 0.0006556753 -0.066833824 0.015143378
0000e0 a5 de 2a 3d 47 a6 ed bd 70 ff 7b bc 22 4d 48 bc
       0.041716237 -0.116039805 -0.015380725 -0.012225421
0000f0 f4 e4 8c bd 22 64 b6 3d c7 ea 08 3e d0 76 23 3d
       -0.06879607 0.089058176 0.1337081 0.03990823
000100 fa 94 d2 bd d8 13 37 3d 59 1f b0 3d 2a 52 c6 3c
       -0.10282321 0.04469666 0.08599729 0.0242091
000110 15 82 a5 3d a8 1e 24 3d bb 30 d6 bd 8e 50 b0 bd
       0.08081452 0.0400683 -0.10458513 -0.086091146
000120 b6 e3 48 3b a1 f4 75 bd 21 f1 03 3d 23 42 c9 3c
       0.0030653304 -0.06004775 0.03221238 0.02456767
000130 26 cf 33 bd 00 bf 0e bd 8f 0d 4a bd 5c 50 64 b9
       -0.043898724 -0.03485012 -0.049329337 -0.0002177371
000140 0c 00 9d bc e0 65 ce bd 67 24 3c bd 92 26 8b 3d
       -0.019165061 -0.10078025 -0.045933153 0.06794466
000150 84 f8 a7 bd 23 9a 90 3d 07 ea b9 3d 41 7e f1 bd
       -0.082016975 0.07060649 0.0907784 -0.11791659
000160 37 fb d9 bd 7f bd a6 ba b7 48 43 3d d8 d6 85 3c
       -0.106436186 -0.0012721269 0.04767677 0.016337797
000170 11 66 61 3d da 2c 5a bd cc 22 0c bd 4d 0d c9 bc
       0.05502898 -0.05326543 -0.034212872 -0.024542475
000180 05 8d cf bd f3 13 9a 3d 11 31 8f bd 8e 3b ba 3a
       -0.10134319 0.07523336 -0.069917805 0.0014208423
000190 66 a4 5e bd b5 09 8d 3c 0c 19 c0 bd 2f 3b 0c bb
       -0.054356 0.017216543 -0.09379777 -0.002139758
0001a0 df ca 88 bd 20 20 be 3b b1 03 9b 3d 92 c6 15 be
       -0.066793196 0.0058021694 0.075690635 -0.1462653
0001b0 ce 72 c4 3c 80 bb 21 bc db 85 a4 3d 23 a4 ce bd
       0.023980524 -0.009871364 0.080333434 -0.100899
0001c0 3a df ec 3d e7 d5 2d bd 33 98 9b bb 5e 55 c4 bd
       0.115660146 -0.04244032 -0.004748368 -0.09586595
0001d0 bd 3d de bd aa 7b 99 bc 98 1c 99 3d d9 96 76 3d
       -0.108516194 -0.018735725 0.07476157 0.060202453
0001e0 53 18 9d bd 06 72 09 be a9 80 c4 bb f2 5f 90 3d
       -0.07670655 -0.13422403 -0.005996783 0.0704955
0001f0 65 93 87 bd 39 2e c6 bd bb c9 d3 3d 02 7d d0 bd
       -0.0661991 -0.09676785 0.103412114 -0.10180093
000200 e0 57 bb bd 1e 8f 71 bd e0 19 d6 3d 8d 53 2b bd
       -0.0914762 -0.058974378 0.10454154 -0.041827727
000210 bc fd 2e 3c 4a 6e f1 bd 18 f7 8c 3d c0 89 99 bc
       0.010680612 -0.11788614 0.06883067 -0.018742442
000220 87 cc 21 bb ed ed 54 3d b3 f9 a4 3d 4c 2d 96 bc
       -0.0024688558 0.051984716 0.08055439 -0.018332146
000230 ac 2a b1 3c 5c 74 d5 3d 33 39 b0 3c 06 3f 7d 3d
       0.021626793 0.104225844 0.02151165 0.061827682
000240 e1 a8 d6 bd 0e 98 05 3e 77 02 1b bd c6 cf 0e be
       -0.1048143 0.13046286 -0.037844148 -0.13946447
000250 73 51 e2 3d 3b 15 cb 3d ae 65 44 bd d7 ba bc bd
       0.110506915 0.09916159 -0.04794853 -0.09215324
000260 ee 1d cf 3c ba 8c 6c bd 48 59 ac 3d c7 49 83 3c
       0.025282826 -0.057751395 0.084154665 0.01602639
000270 33 28 05 3b 28 c8 e5 3b 41 ef 0d 3e a7 ad b7 bd
       0.002031815 0.007012386 0.138608 -0.089686684
000280 1a 6b df 3d bb d4 86 39 de 2c d6 bd 47 9e cc bd
       0.109091 0.00025716968 -0.104577765 -0.099911265
000290 0a 6b 17 3c 71 72 6c 3d 1b e7 3b 3d d0 c4 89 3d
       0.009241829 0.057726327 0.045874696 0.06726992
0002a0 ee 5d 48 bd b5 ab 47 bd 26 a6 9e 3d e5 a4 f3 3c
       -0.048917703 -0.048747737 0.07746534 0.029741714
0002b0 c9 91 bf bd 4a 3d 05 3d 3e 64 e5 3d b7 39 d2 bd
       -0.09353978 0.032529153 0.1120076 -0.102649145
0002c0 e7 e1 d1 3d 57 c2 a2 bd 66 0b 7e bd e6 30 83 3c
       0.102481656 -0.07947224 -0.06202259 0.016014528
0002d0 ad f7 a1 bd 97 7b 0f 3d da 3c 02 3e 9b de 9d ba
       -0.079085685 0.035029974 0.12718526 -0.0012044491
0002e0 5e 0d de 3d 49 1b a8 3d bf 23 89 3d b4 92 03 3e
       0.10842393 0.08208329 0.06696271 0.12848932
0002f0 fa ec 3e 3d ab 68 1a bd b9 ad 50 bb 29 8f bc 3c
       0.046612717 -0.037697475 -0.0031841828 0.023017483
000300 d1 2c 36 3b 38 45 ab 3d 29 08 ed bd 8b 04 0e be
       0.0027797709 0.08362812 -0.11573822 -0.1386892
000310 e2 68 7c 3d 76 ca bb bd b1 1d 50 bd 5c d2 88 bd
       0.06162346 -0.09169476 -0.050809566 -0.06680748
000320 a7 48 4e bd ba 73 33 3d 81 52 e6 3d 5a b6 1c be
       -0.050362255 0.043811537 0.11246205 -0.15303937
000330 a9 25 d3 bd 0f 18 f1 bd 84 12 9e 3d 9f 7b 36 3d
       -0.103099175 -0.11772167 0.07718375 0.044551488
000340 1c 28 4a 3d c2 5d 72 bd 2f 41 15 bc 47 b1 b8 bd
       0.049354658 -0.059171446 -0.009109779 -0.09018188
000350 35 45 a1 bd 6b 2a 39 3c 6e 3b 95 bd a5 34 0c 3d
       -0.07874528 0.011301617 -0.07286726 0.034229893
000360 b0 77 38 3c 28 9f b5 bd b4 3d d9 bd 20 81 77 3d
       0.0112590045 -0.08868247 -0.10607472 0.060425878
000370 58 cd d3 3d f2 3d 78 bd 87 49 1a 3e a9 62 7c 3d
       0.103419006 -0.06060595 0.15067111 0.061617527
000380 2c 74 b4 bc b0 a4 ad bd 40 b4 d8 3c 12 89 cf bd
       -0.022028051 -0.08478677 0.026453137 -0.10133566
000390 c8 80 1a bc 00 3a c7 3c fd e2 c4 bd b6 52 f2 ba
       -0.009430118 0.024319649 -0.09613607 -0.0018487785
0003a0 45 c2 e5 bd 3e c2 0e bb f5 8e 33 bd be 15 bd bd
       -0.112186946 -0.0021783258 -0.043837506 -0.092326626
0003b0 9f 23 d2 bd 7a fd 02 3d 48 2e d9 3d 25 f7 9f 3d
       -0.102607004 0.031980015 0.106045306 0.07810811
0003c0 0e 01 a4 bc 45 d8 90 3d 0c d7 b8 bc e2 1c a0 bc
       -0.020020034 0.070725 -0.02256348 -0.019545022
0003d0 e8 e5 13 3d 27 bc ac bc f1 3e d7 bc 7e e0 51 3c
       0.036107928 -0.021085812 -0.02627513 0.012809871
0003e0 9a 9e c0 3d 6b 83 a8 bd a5 e4 12 be 33 51 a4 bd
       0.09405251 -0.08228191 -0.14345033 -0.080233
0003f0 b8 b2 2a bd 78 9b d8 3d 7d 4f 87 bc 60 27 93 3d
       -0.041674346 0.10576528 -0.016517395 0.071852446

rnn.bias_ih_l1 f4 [64]
000000 76 39 4a bd 04 d4 40 3c c3 5c 9c 3d b5 7d f9 bc
       -0.049371205 0.011769298 0.076348804 -0.03045545
000010 e8 53 bd 3c 9b ef f5 bc bb 73 bb bb 59 23 fe 3d
       0.023111299 -0.03002148 -0.0057205833 0.12409086
000020 2c 44 e0 3d 9a 03 b2 bd 4c 53 0d be 74 56 e0 bd
       0.10950503 -0.08692093 -0.13801306 -0.109539896
000030 94 14 de bd fe 57 eb bd db 72 f9 bb e4 78 04 bd
       -0.10843769 -0.114913926 -0.007612569 -0.032341853
000040 37 40 df 3c 54 69 f8 bc 50 50 f1 bc 72 54 8a bd
       0.0272523 -0.030323662 -0.029457241 -0.06754388
000050 52 0c d3 bd fa 70 37 3d 1f 79 9d bd d4 ee b7 bd
       -0.10305084 0.044785477 -0.07689118 -0.089811
000060 75 3a 42 3d f7 9d e7 3d 14 37 98 bd 1f e6 e6 bd
       0.04741903 0.11309426 -0.0743238 -0.11274361
000070 6b d7 67 bd 2d 7f 4b bd 7d a4 06 3d b8 f7 7a 3d
       -0.056601923 -0.04968183 0.032871712 0.0612714
000080 3b bc dc 3d fb 30 8e bd 28 e2 e3 bd 74 dc 7a 3d
       0.107780896 -0.06942936 -0.1112712 0.061245397
000090 75 55 9f 3d a5 ac 69 bd 9d cb 82 bd 4b 9a ab 3d
       0.077799715 -0.057049412 -0.063864924 0.083790384
0000a0 e3 d8 59 bd 7b ce 9b bd 7b f9 d9 3d 36 e1 7e 3d
       -0.053185355 -0.076077424 0.10643288 0.062226497
0000b0 c0 23 d3 3d 26 cc dc bc 75 79 2b 3b ac d5 d0 3d
       0.10309553 -0.026952814 0.0026164923 0.10197005
0000c0 cb 57 da 3c fa 76 ef bd cb a4 9e bd 80 fa 95 bd
       0.026653191 -0.11692615 -0.077462755 -0.0732317
0000d0 6f 2c 18 3c 7a b5 67 bd 65 7b 25 bd 52 9f e1 3d
       0.009287938 -0.056569554 -0.04040088 0.11016716
0000e0 14 ab 74 3d 0a a8 a7 3d 76 66 9d 3d 2d 32 9a 3a
       0.059733465 0.08186348 0.076855585 0.0011764221
0000f0 e9 35 7e bc 50 9e 95 3b b2 f6 d9 bd ba 16 88 3d
       -0.015515783 0.0045659915 -0.106427565 0.0664496

rnn.bias_hh_l1 f4 [64]
000000 7f 3e ef 3d 95 70 d8 3d 31 1f 8b 3d cd d3 9f bd
       0.11681842 0.10568348 0.06793059 -0.0780407
000010 48 3a b9 bd 17 cf 9d bd 5d c7 89 bd 4f 4c ee bd
       -0.090443194 -0.07705515 -0.06727479 -0.116356485
000020 3d ae b3 bd fe a2 88 3d 7d 70 c6 bd e9 4c 74 bd
       -0.08773468 0.06671713 -0.09689424 -0.05964366
000030 33 ad a7 bd 92 21 75 3d 15 91 b6 3d e8 e0 76 bd
       -0.08187332 0.05984647 0.08914391 -0.06027308
000040 d0 db 1d 3d 0a b4 01 be 91 1b b6 3d 19 2e 47 bd
       0.038539708 -0.12666336 0.088919766 -0.048627947
000050 28 ea 91 bc 54 43 f8 bd 51 9c f5 3b 05 b5 f4 bc
       -0.01781185 -0.12122217 0.007495441 -0.029871473
000060 00 b5 d0 bd e6 2d 77 bd 19 c0 00 bd 91 8c 97 bd
       -0.10190773 -0.060346507 -0.0314332 -0.07399858
000070 9c 15 b4 bd 83 54 12 bd e5 3f dd 3d ad c1 c7 bd
       -0.08793184 -0.035725128 0.108032025 -0.097537376
000080 e5 a7 b6 bd 55 1c aa 3c df 6e 46 3c 4d 92 9a bc
       -0.08918742 0.020765463 0.012111395 -0.01886859
000090 d0 cf e7 3a 45 d3 86 3d 83 e8 62 3d 5a 4a e3 bc
       0.0017685834 0.06583265 0.05539752 -0.027745415
0000a0 bd 46 fc bd 16 69 8a 3d 10 93 cd 3d 4e ab ad 3c
       -0.1231818 0.06758325 0.100378156 0.021199849
0000b0 f4 c6 ad 3d dd 74 d2 bc b2 eb 28 3c 2f 60 0f bd
       0.08485213 -0.02569049 0.0103101 -0.035003837
0000c0 4c b5 b2 3a f2 5a 3f 3d 83 a2 ba bd 54 34 ba bd
       0.0013634353 0.04671759 -0.09113028 -0.09092012
0000d0 95 42 c2 3d a2 10 3c bd d7 43 8e 3d 0e d7 f7 bd
       0.09485356 -0.0459143 0.06946533 -0.12101565
0000e0 8c 93 90 3d 3e 5e 56 bd c9 34 cc bd b9 55 81 3d
       0.07059392 -0.05233597 -0.099710055 0.063151784
0000f0 ff 2d df bd 4f 6e 66 bd 56 9b 5b bd 8e ac c3 3c
       -0.10897445 -0.056257542 -0.053614937 0.023885991

fc.weight f4 [5, 64]
000000 b6 22 bc bd e2 07 f5 bd 84 15 46 3d 85 1e 30 be
       -0.09186308 -0.11964394 0.048360363 -0.17199142
000010 89 71 00 3e 14 b0 17 bd 81 22 a5 bd 63 ea b4 3d
       0.1254331 -0.037033156 -0.08063222 0.08833768
000020 44 ee f0 bd e0 02 ee bd cf 14 0e 3e 1c 91 ec bd
       -0.117641956 -0.11621642 0.13875125 -0.11551115
000030 d7 cc 7e 3d e2 21 9b 3d ae c3 f2 bd ff e6 ed bd
       0.06220707 0.07574822 -0.11853729 -0.11616325
000040 82 01 d3 bd 91 30 a4 bd 4c 5f a4 bd 77 70 87 3c
       -0.10303022 -0.08017076 -0.08025989 0.01653312
000050 60 0a 36 bd c5 76 de bd 36 91 f2 bd ff d3 17 3e
       -0.044443488 -0.10862497 -0.11844103 0.14826964
000060 fe 61 cf bd 46 43 dd 3d 69 78 11 3e 58 2e d1 3d
       -0.101261124 0.10803847 0.14206089 0.102139175
000070 3c 6e 1d bd 12 3f c3 bd c6 90 ec 3d 94 dd 45 3d
       -0.038435206 -0.09533514 0.11551051 0.048307016
000080 0b 27 11 3e 1e f7 49 bd 95 92 f0 bd a3 44 b6 3d
       0.1417505 -0.049307935 -0.11746708 0.0889981
000090 fe 62 ab bc e9 60 3f 3d 38 e1 85 bd 85 2b ac 3c
       -0.020921227 0.04672328 -0.06537098 0.021016845
0000a0 6c 7d a9 bb ca 96 ff 3d f9 8e 0b 3e 6e 85 18 3e
       -0.005172422 0.124799326 0.13628758 0.1489465
0000b0 0a 42 89 3d bb a4 98 3c 00 9a 25 3e d2 f1 b2 3b
       0.06702049 0.018633237 0.16172028 0.005460956
0000c0 e4 ec 13 be d1 d5 5b bc d2 fb ec 3d c6 b3 1b 3e
       -0.14445835 -0.013417677 0.115714684 0.15205297
0000d0 18 9d 75 3d 7e d9 d4 3d ef 9b ed bd e4 89 3b 3e
       0.05996427 0.10393046 -0.116020076 0.1831432
0000e0 a2 0e 65 3c dc 0a b4 3d 7c f4 7d bb fd 43 b4 3d
       0.0139805395 0.08791134 -0.003875046 0.0880203
0000f0 16 96 23 be 0d 77 04 be af ea bc bd b7 78 a2 3d
       -0.15975222 -0.1293604 -0.0922445 0.07933181
000100 56 95 11 be 47 3a 39 bd bf 5e 10 bc 19 3b 05 be
       -0.14217123 -0.045221593 -0.008811652 -0.13010825
000110 05 9a 27 3e 56 0b cf bd 24 72 01 be 8d 09 f9 3d
       0.16367348 -0.10109584 -0.12641197 0.12160025
000120 78 46 c9 bd 1a da 41 be 64 23 4b 3c b5 f9 f7 bd
       -0.09827894 -0.18930855 0.0123985745 -0.12108175
000130 ed 0a c7 3c 78 7b 5f 3d cd 66 2e be 45 c5 21 be
       0.024297202 0.05456111 -0.17031403 -0.15797909
000140 82 b1 4d bc 06 1f 2b 3e 08 21 8f bd f5 f1 db bd
       -0.012554528 0.16711053 -0.06988722 -0.10739509
000150 9c d2 20 be 50 16 11 bd 28 74 3b bd 24 fd 02 3d
       -0.15705341 -0.03542167 -0.045765072 0.031979695
000160 2e 8c 31 be 44 0a a7 bb 83 59 de 3d d3 6e 0f 3e
       -0.1733863 -0.0050976593 0.10856917 0.1400712
000170 46 76 45 be 35 da 13 3d aa 2c 89 bc 21 21 8c 3d
       -0.19283399 0.03609677 -0.01674493 0.06842256
000180 7f 6c 1a 3e a9 f4 29 3e 75 ce 3f be b5 92 0d be
       0.1508045 0.16597237 -0.18731101 -0.13825496
000190 a9 98 19 be 04 45 43 3d 83 a4 06 3e e7 d9 5f 3d
       -0.14999641 0.04767324 0.13148694 0.054651167
0001a0 54 2a 39 3e 12 40 24 3e 7b 98 d7 3d 28 c1 6f 3d
       0.18082553 0.16040066 0.1052713 0.058533818
0001b0 6d 58 ff bc 13 0e e5 39 8a a6 2c 3e e5 b3 fa 3d
       -0.031170094 0.0004368877 0.16860405 0.122413434
0001c0 f6 d3 1b 3d 8c 6c 02 be 14 82 b3 3d a8 09 78 3d
       0.03804394 -0.1273672 0.08765045 0.060556084
0001d0 35 e1 98 3d e3 a7 02 bd 76 0c 9f bd 74 32 9a 3d
       0.0746483 -0.03189839 -0.077660486 0.075291544
0001e0 51 ba a9 bc 59 9d 21 3e 78 71 1b be e3 38 e1 3d
       -0.020718725 0.1578268 -0.15180004 0.109971784
0001f0 2d a3 45 bd 01 3c fe bd ca 2f 7d 3d 4b 33 c1 3d
       -0.04825132 -0.124137886 0.061813153 0.094336115
000200 8d a7 41 bc e6 79 7d 3b 9c ed 22 bc f5 4c 91 3c
       -0.011819732 0.0038677393 -0.009944346 0.017736891
000210 11 73 ad 3d 6d 40 20 be b6 d0 08 3c 23 44 d1 3d
       0.08469213 -0.15649576 0.008350542 0.10218074
000220 b2 c1 ad bd 13 ef db bd a9 d1 f4 3c 63 1d c0 bd
       -0.0848421 -0.10738959 0.02988513 -0.09380605
000230 ee aa 0e be 73 22 01 3e 8c 9e 1a be 91 d0 81 bd
       -0.13932392 0.12610798 -0.15099543 -0.06338609
000240 b7 78 46 be cc 92 18 3e d6 20 c3 bd 62 59 6e bd
       -0.19381987 0.14899749 -0.09527747 -0.05819071
000250 d0 11 62 bd 24 57 4b bd 27 2f fc bd 1a f2 07 3e
       -0.05519277 -0.04964365 -0.12313681 0.13275948
000260 bd d8 18 be 64 40 ce 3d 71 0c 96 3d f7 52 10 3e
       -0.14926429 0.10070875 0.07326592 0.14094149
000270 58 b7 c2 bc a7 f4 eb 3d c2 d1 87 3d e4 be ca 3d
       -0.023769066 0.11521273 0.06631805 0.09899691
000280 fb 0e 8b 3d 7f d7 ca 3d 6c 79 1f be 01 c9 e3 bd
       0.06789967 0.09904384 -0.15573663 -0.11122323
000290 62 13 cf bd 28 9c 33 be 89 45 d5 3d b1 35 38 3e
       -0.10111119 -0.17540038 0.104136534 0.17989232
0002a0 55 4a 2f 3d 61 a7 28 3e af ff 10 3e 0b 96 32 3e
       0.042795498 0.164701 0.14160036 0.1744005
0002b0 e1 e3 83 3c aa 29 37 3e 43 25 14 3e da ad 7c 3d
       0.016099872 0.17886987 0.14467339 0.061689235
0002c0 48 99 9d bd 26 87 d8 bd 7a 7d 6d 3d 4b fc 54 bd
       -0.07695252 -0.105726525 0.057980992 -0.051998418
0002d0 03 d6 36 3e 47 e8 0f be fb b3 af bd 38 e2 69 b9
       0.17855076 -0.1405345 -0.085792504 -0.00022304885
0002e0 95 52 3f be ae b6 06 3e 03 a7 9b bb ab 79 e6 3d
       -0.18683846 0.13155624 -0.004750134 0.11253675
0002f0 47 be b1 bd e5 0f 13 3c 46 ba b1 3d aa 18 9c 3d
       -0.08678871 0.0089759575 0.08678107 0.07621892
000300 49 ea ff bd c3 4f 03 be 35 6b a7 bd 8f cd 09 be
       -0.12495858 -0.12823395 -0.08174745 -0.1345732
000310 2e 05 86 3d ed 23 05 be 82 4a 08 3d ae 40 35 3e
       0.06543957 -0.13001986 0.03327418 0.17700455
000320 6b 17 15 be 3c 22 fd 3c c6 10 cb 3c ea c2 07 3d
       -0.14559714 0.030900113 0.024788272 0.03314487
000330 c7 ae 01 bd fa d8 27 3d dc 69 7e bd ac c3 59 bd
       -0.03166082 0.04097841 -0.062112674 -0.053165123
000340 bb 32 55 3c e5 1b 73 bd 19 10 cc bd 81 af a5 bd
       0.013012583 -0.059352774 -0.09964008 -0.08090115
000350 66 61 3b ba 95 4a e1 bd 5b c1 8f bc e3 08 bf bb
       -0.00071479974 -0.110005535 -0.017548254 -0.005829917
000360 75 4a 3d bd f3 fd 36 3e 82 2f f8 bc 7d a3 b1 3d
       -0.046213586 0.17870311 -0.030296091 0.08673761
000370 27 ef da bd f9 67 14 3e f1 6b 3b 3e 19 d4 8b 3d
       -0.10690146 0.14492787 0.18302895 0.06827564
000380 32 85 31 3e 00 f2 d0 3d 9e b7 37 be 51 02 a9 bc
       0.17335966 0.10202408 -0.17941138 -0.020630987
000390 93 35 94 bd 31 1d b1 b9 69 58 2d bd cf 80 36 3e
       -0.07236781 -0.0003378182 -0.042320643 0.17822574
0003a0 da 8b 02 3c 28 8a 50 bc 41 6d 6a 3d 0b 5f 73 3d
       0.0079679135 -0.0127282515 0.0572331 0.059416812
0003b0 e0 76 c6 3c a3 7e 3a 3e eb fb 15 3d d0 21 8f 39
       0.024226606 0.1821237 0.0366172 0.00027300278
0003c0 6f 59 85 bb 38 ac 62 bc b2 58 0d 3e 1b ac 9e 3d
       -0.004069499 -0.013835005 0.13803366 0.0774767
0003d0 bc 33 f1 3d 6a 4c 40 be 7c 45 f5 bd 29 5a 1b 3d
       0.11777446 -0.1877915 -0.11976144 0.03792778
0003e0 1b 39 f5 bc 74 91 21 bd 42 54 3a be 90 2d 27 3e
       -0.029934457 -0.039445356 -0.18196204 0.16325974
0003f0 42 1c 9c bd 6e b9 21 3c 08 31 13 3e 5a 13 01 3e
       -0.07622577 0.00987087 0.14374173 0.12605038

fc.bias f4 [5]
000000 b8 33 98 bd 14 65 78 bd 30 7a aa bd 7f 8d 5f bd
       -0.074317396 -0.06064327 -0.08324087 -0.0545783
000010 40 0e da 3d
       0.10647249
