nasdaq_trading_bot/models/rnn/best_rnn_model.pth (torch, 59189 bytes, 10 tensors)

rnn.weight_ih_l0 f4 [64, 14]
000000 e5 4b b8 3c 66 ba b6 3c ee 4e ec 3c 4b d2 d8 bd
       0.022497127 0.022305679 0.02884623 -0.10586985
000010 8e 53 ec 3c a5 0b 66 bd 28 9e cc 3d ec 1a 2d 3c
       0.028848436 -0.05616345 0.099911034 0.010565501
000020 ca 73 c4 3d 02 3a 6b bd 1b b1 16 bd e9 ef a6 bc
       0.095923975 -0.057428367 -0.036789995 -0.02037807
000030 b4 00 62 bb 2b 65 b6 3c 09 6b 4a 3d d7 6f a1 3d
       -0.0034485282 0.022265038 0.049418483 0.0788266
000040 63 cc 7a 3d eb c0 d0 3c b4 77 a5 bd 82 05 c2 3d
       0.061230075 0.025482615 -0.08079472 0.09473707
000050 cc ec 83 bd de 18 86 3d 8e ac c9 bd 52 a7 75 bd
       -0.0644165 0.06547712 -0.09847365 -0.059974022
000060 15 97 be bc c2 3c 5e bd 6f b8 a6 bd cf 02 ef bd
       -0.0232654 -0.054257162 -0.08140647 -0.116704576
000070 4c 58 86 bd 41 ff d5 3d 93 2c ca bc 44 cc dd 3d
       -0.0655981 0.104490764 -0.024679458 0.10829976
000080 3f 44 fe bd 74 3e 83 bd 94 1a 98 bd 6b 79 e9 3c
       -0.12415361 -0.06408396 -0.074269444 0.02850028
000090 ff 75 3b 3d f0 9a d6 3d 04 cb e1 bd f4 6f 99 bc
       0.045766827 0.10478771 -0.1102505 -0.018730141
0000a0 aa 71 61 3d 04 6a 42 bc 0f 6c 37 3b 4b 40 c8 bc
       0.05504004 -0.011866096 0.0027987992 -0.02444472
0000b0 0d f6 d3 bc 41 3b 88 3d 67 11 b5 bd 8a f6 43 bc
       -0.025874162 0.06651927 -0.0884121 -0.011960635
0000c0 bb 56 8e bd fd 12 66 bd 5d dd a3 bc 93 a2 40 3d
       -0.06950136 -0.056170452 -0.020003015 0.047030043
0000d0 22 72 da 3d 4a c5 65 3a 11 12 04 3d 38 59 2e bd
       0.106663 0.0008765055 0.032243792 -0.042565554
0000e0 2a 39 c2 bd f1 31 51 bd ed b3 0c bd b7 cd a9 3c
       -0.094835594 -0.05107302 -0.034351278 0.020727975
0000f0 31 14 02 bd 13 84 60 3d 05 8e 3b bd 33 e7 ed 3c
       -0.031757537 0.054813456 -0.045789737 0.029040908
000100 cd d0 d7 bd 85 98 b3 bd 23 94 b2 3d 03 c0 5b 3c
       -0.105378725 -0.08769325 0.08719661 0.013412478
000110 88 24 9e bd a0 4e 05 3d 0c e2 50 bd 2e 2f 93 3b
       -0.077218115 0.032545686 -0.050996825 0.0044917082
000120 83 e3 d9 bd 0d 38 33 bd 07 ca 6b 3d 79 90 95 3d
       -0.106390975 -0.043754626 0.057565715 0.073029466
000130 7f 78 6e bb cf 21 75 3d 87 41 99 bc b4 00 a7 bb
       -0.003638774 0.059846696 -0.018708004 -0.0050965194
000140 0f 47 2e bc 06 75 78 3d 1f e5 88 ba 8e 3c 09 be
       -0.010637059 0.060658477 -0.001044426 -0.13402006
000150 68 15 1d bd 3f 27 b5 3b fe 4a 60 3d 42 9a ec bd
       -0.038350493 0.00552836 0.054759018 -0.1155286
000160 a3 74 d3 3d 0a 76 81 bc f7 53 1f bd 05 38 b7 bd
       0.10324981 -0.015803356 -0.038898434 -0.08946232
000170 1a cd f8 3d 4c 27 8e 3d aa f2 e0 bb 91 86 d7 bd
       0.12148495 0.06941089 -0.0068648653 -0.105237134
000180 4c 86 30 3c dc 67 da 3d eb 96 d8 3d de 4a a0 bd
       0.010774206 0.10664341 0.1057566 -0.0782678
000190 cd 6e 70 3d 3a 52 54 3d dc 14 a0 3d b4 52 15 3b
       0.058699418 0.05183623 0.078164786 0.002278489
0001a0 ba 16 d7 bd 8b 78 02 3e 1b 49 a2 3d f9 6c 4b bd
       -0.105023816 0.12741296 0.079241 -0.04966447
0001b0 02 74 19 bd ce cd 9e 3d 73 a3 1b bd 1d 7a c1 3d
       -0.03746415 0.07754098 -0.037997674 0.094471194
0001c0 04 2c 36 bc a3 a6 ff 3d a7 81 80 3d 44 4a 86 3d
       -0.011118893 0.12482955 0.06274729 0.06557134
0001d0 da 22 44 bd c7 24 99 bb 7f bf e4 3c 48 68 a6 3d
       -0.0478848 -0.0046735737 0.027923344 0.08125359
0001e0 cd d4 66 3c 7d f2 98 bd e7 1d 46 bd c8 7e 67 3d
       0.014088822 -0.07468126 -0.04836836 0.056517392
0001f0 b3 b2 05 3d e3 b2 8d bd 0e 0c c2 bd b2 1c 73 3d
       0.032641124 -0.069188856 -0.094749555 0.059353538
000200 21 df 4c bc 43 55 02 be f7 c4 29 3c a6 8f 72 bd
       -0.01250437 -0.12727837 0.0103619015 -0.059219025
000210 ab 0b 28 bd e7 e2 84 bd ad 99 8a 3d 09 37 93 3d
       -0.041026752 -0.06488591 0.067675926 0.071882315
000220 1a 16 69 bd 98 24 6e 3d 90 56 ce 3d 64 48 ba bd
       -0.056905843 0.058140367 0.10075104 -0.09095839
000230 54 55 ac bd 8b 7c cc bd 5a 72 b1 3c 89 44 46 3d
       -0.084147125 -0.09984692 0.021660972 0.048405204
000240 c9 f0 8a 3d a7 85 0f bd 68 41 cc 3d bf 24 f2 3d
       0.067842074 -0.03503957 0.09973413 0.11823415
000250 9d b1 b7 bd f9 0e ee bd a3 b7 cb 3d 06 30 5d bb
       -0.08969424 -0.116239496 0.09947135 -0.0033750548
000260 84 65 b9 3d a2 46 b6 bd b7 dc 1a bd bf 76 9b 3d
       0.09052566 -0.08900191 -0.037808146 0.075910084
000270 8e 78 73 3d 57 9c 26 3d 85 be c3 bd 32 82 5a 3d
       0.05944114 0.04067644 -0.09557823 0.05334682
000280 9a 10 4b bc c5 3d e3 bd 09 7e e4 bd 63 3b 5c 3d
       -0.012394095 -0.11095766 -0.11156852 0.053767573
000290 d4 0f cd bd 6c 75 44 3d 87 4a b4 bd cc 6c 86 bb
       -0.100127846 0.047963545 -0.088032775 -0.004102325
0002a0 53 5c ba 3d 9d e5 af bd 92 26 c5 bd b3 9e da 3d
       0.09099641 -0.08588717 -0.09626497 0.10674801
0002b0 00 a0 ef bd 91 5c 36 3d 99 12 2a bd 4c c5 a5 bd
       -0.117004395 0.044521872 -0.041521642 -0.08094272
0002c0 3a f9 00 3d 0b 62 49 3d 58 d8 b8 bc 0f 0e f1 3c
       0.03148768 0.049165767 -0.022564098 0.029425649
0002d0 a6 21 97 3c f1 64 02 3e 72 12 fe bc a0 45 b8 bc
       0.018448662 0.12733819 -0.031014655 -0.022494137
0002e0 3b 1c 0b be c1 f0 94 bd 9b f3 ea 3d 82 da 2a bc
       -0.13584988 -0.07272483 0.11472245 -0.010428073
0002f0 97 3e b0 3d 68 25 d8 bd 09 ea d3 3c 7f 43 bf 3d
       0.08605688 -0.1055401 0.025868433 0.09339046
000300 b6 71 f9 3d 1e 7f b4 bd ad f0 9a 3c e7 81 a9 3d
       0.12179892 -0.08813308 0.018913591 0.0827673
000310 9c f2 ab bd 1d a9 29 bd e0 ad 62 bd 8a cc dc 3d
       -0.083958834 -0.041421045 -0.0553416 0.107812
000320 69 6d a2 bd 30 18 39 bd a3 5b 3d 3c a5 aa 22 3d
       -0.079310246 -0.045189083 0.011557492 0.03971352
000330 b0 1d da 3c e8 ba 29 bd a3 f8 6f 3d 9b c1 aa 3d
       0.026625484 -0.041438013 0.058586728 0.083377086
000340 34 db 5b 3d 9a 6c 02 bd 11 0e d3 bd fd 8d 9a 3d
       0.053675845 -0.03184185 -0.10305417 0.07546613
000350 20 54 e7 3d fe 6b 13 bd 7a 23 ef 3d 17 22 d2 bd
       0.112953424 -0.03599166 0.116766885 -0.10260408
000360 b2 59 98 3d 5b 47 d6 3d d6 d9 b9 bc 5a 7d 06 3d
       0.07438983 0.10462829 -0.02268688 0.03283439
000370 b7 97 8e 3d 02 76 9a 3c ac 1e f0 3d 6c 65 71 bd
       0.06962531 0.018855099 0.117246 -0.058934614
000380 af ae 66 bd d2 cc 42 3c f6 36 ef 3d e4 6a 88 bd
       -0.056318935 0.011889653 0.11680405 -0.06661013
000390 80 05 9c 3d 28 81 8b bd de 5c 2c bd da c2 43 bd
       0.076182365 -0.06811744 -0.042080753 -0.047793247
0003a0 eb 9c 01 3e 47 a1 a6 bd b6 1a b9 bd 6d 58 d2 3d
       0.12657516 -0.0813623 -0.09038298 0.10270772
0003b0 1f 61 86 3c 26 5b ae bd ac 0c ad 3c 25 33 a2 3d
       0.016403733 -0.08513479 0.021124206 0.07919911
0003c0 c6 76 73 3d 13 23 d2 3d 2d 7e 11 3d fe 80 ef bc
       0.059439443 0.10260596 0.03552072 -0.029236313
0003d0 e9 e5 00 bd 5f 31 33 bd 8b 30 a7 3d b3 0a c9 3d
       -0.03146926 -0.043748256 0.08163556 0.09816494
0003e0 0b 75 05 be 37 c1 90 bc 28 f4 67 bc 06 d5 a1 3d
       -0.1303293 -0.017670257 -0.0141573325 0.07901959
0003f0 d7 15 68 bd 70 1c 05 3d e8 59 9b 3d 3e e4 c9 bd
       -0.056661453 0.032497823 0.07585508 -0.09857987

rnn.weight_hh_l0 f4 [64, 64]
000000 fb 97 d8 bd f5 61 87 bc b3 85 3c 3d ae 27 e8 3d
       -0.10575863 -0.016526202 0.046025943 0.11335693
000010 f8 4c ba 3d 71 ce 2f 3d 8a db c5 3d d0 b0 31 bd
       0.09096712 0.042921487 0.096610144 -0.043381512
000020 e1 2f e8 bb 56 60 ea ba dc ca a9 3d 33 20 fa 3d
       -0.0070857857 -0.0017881494 0.082906455 0.12213173
000030 a3 73 d3 3d d0 cf 88 3c f1 73 b0 bd 81 05 b7 bd
       0.1032479 0.016700655 -0.08615864 -0.08936597
000040 89 8e 3d 3d c3 13 36 3d 1a 86 56 bd cb 6d b8 bd
       0.04627851 0.04445244 -0.052373983 -0.09005316
000050 6e d5 34 3d 66 08 33 bd 9a 23 8a 3d 11 f9 d8 3d
       0.044148855 -0.04370918 0.06745072 0.10594381
000060 81 d9 b5 3d 4b 64 a0 bc f2 d0 e0 bb f1 55 cc bd
       0.08879376 -0.019579073 -0.0068608457 -0.099773295
000070 91 01 c3 3d 08 c1 de 3d 12 a1 f0 3d 2c 90 e4 bd
       0.09521783 0.108766615 0.11749472 -0.11160311
000080 33 b9 a3 3d ac 5b e9 bd ba 7e 9f 3d d2 ee a4 3b
       0.07994308 -0.11394438 0.07787843 0.0050333524
000090 9b fa 0b be 8b 1a 6a bd 41 b4 ed 3c 7e 30 e9 bd
       -0.13669817 -0.05715422 0.029016616 -0.11386202
0000a0 55 6e 31 3d f1 1d ef bd 25 30 c2 3d eb 6f 9d 3d
       0.04331811 -0.11675633 0.09481839 0.07687362
0000b0 25 fb 4e bc 9f 13 a0 bd 75 bc f1 3d 2e 7e 89 3d
       -0.01263312 -0.078162424 0.118035235 0.0671352
0000c0 c8 e7 59 bd 6f 09 d4 3d a4 e0 bd bc 66 da 28 bc
       -0.05319956 0.10353362 -0.023178406 -0.0103059765
0000d0 b0 48 83 bd be a0 cc bc 86 05 66 bd 7f f3 61 3d
       -0.064103484 -0.024978992 -0.05615761 0.055163857
0000e0 8a 76 e8 bc 29 e0 4d 3d a1 fc 00 bc 9d 07 2f 3d
       -0.028376836 0.050262604 -0.007872731 0.04273187
0000f0 5f a7 83 ba 77 9c cb 3d 33 b0 5c bd 00 99 d0 3d
       -0.0010044387 0.09941953 -0.053878974 0.101854324
000100 2c 4a 90 3d 63 97 01 be b0 32 0e 3c 79 40 aa 3d
       0.07045397 -0.12655406 0.008679077 0.083130784
000110 97 33 f6 3d 8c 8c a1 bd 4d 05 c1 3d 34 45 9b bd
       0.12021559 -0.07888135 0.09424839 -0.07581559
000120 f8 dd e0 3d db 0e c5 bd fc d9 ee bc 9c 51 c3 bd
       0.10979837 -0.09621974 -0.029156677 -0.0953705
000130 46 44 ec bd 0d 9a 3b 3d bb d6 d9 3c 79 07 8d bb
       -0.115364596 0.04580121 0.02659165 -0.0043038693
000140 57 dd ae 3d 70 de 57 bc d1 39 cf bd 50 9d bc 3a
       0.08538311 -0.013175592 -0.101184495 0.0014390144
000150 32 a2 b5 bd 90 81 09 3e 8f c0 51 3d 12 61 f1 3a
       -0.08868827 0.1342833 0.05120903 0.001841577
000160 e2 e1 95 bc 66 82 5e 3d 1e 94 28 3d 66 7f c9 bd
       -0.018296186 0.054323576 0.04115688 -0.098387524
000170 ed 9b 30 bc 08 9e dd 3d ac 04 cb bd ca c8 d9 3d
       -0.010779363 0.10821158 -0.099130005 0.106340006
000180 60 7c bf bd da df 40 3d e2 16 83 3d 3b 95 57 3d
       -0.093498945 0.04708848 0.06400849 0.05263255
000190 77 96 87 3d 12 ad ab 3c 33 ef 0a 3c fd 58 ae 3d
       0.06620496 0.02095655 0.008479881 0.08513067
0001a0 50 5a a5 bd 7d 89 01 bc bb af 4f bd ea 61 11 3d
       -0.08073866 -0.007906315 -0.0507047 0.03549377
0001b0 14 c4 98 3d 78 fb 88 3d d4 2b ee 3c 03 0f 6d 3d
       0.07459274 0.06688589 0.029073633 0.057875644
0001c0 f4 10 9f 3c 40 68 d2 3c 8c 86 4f 3d 64 84 a3 3d
       0.019417264 0.025684476 0.050665423 0.07984236
0001d0 9d 37 da 3d 7e 5b 2e bc 40 14 ba bd 8f 88 a0 3d
       0.10655139 -0.010641931 -0.09085894 0.078385465
0001e0 14 39 ba 3d 1a c4 ca 3d 39 64 8f 3d b1 9a 2f 3c
       0.09092918 0.09900685 0.07001538 0.010718034
0001f0 90 aa aa ba 50 b3 84 bd bb 29 64 bd 14 32 95 3c
       -0.0013020802 -0.06479514 -0.05570386 0.018212356
000200 b5 f6 64 3d 88 57 00 bd c0 8e a8 3d 65 4d cd 3d
       0.05589934 -0.031333476 0.082303524 0.100245275
000210 3e e3 b8 bd 3e ed 81 3d 40 53 df 3c 1d 9a 52 3d
       -0.09027718 0.063440785 0.027261376 0.051416505
000220 ed 84 08 3c 49 9d 19 bd 50 b9 e4 bd a9 c9 f4 bd
       0.008332473 -0.037503514 -0.11168158 -0.11952526
000230 9d 70 d4 bd d3 46 92 3d 6f 16 9d 3d 50 85 86 3d
       -0.10373042 0.07142415 0.076702945 0.06568396
000240 99 d4 14 bd 20 1f 8f bc 15 c9 2d 3d 5c 9c cb 3d
       -0.03633556 -0.017470896 0.042428095 0.099419326
000250 13 03 e0 3d 1e c5 be bd 5b ad 15 bd 8f e5 01 3e
       0.10938086 -0.09314941 -0.036542278 0.12685226
000260 92 eb 05 3d 2e e0 db bd e0 9a c8 3d a9 de 59 3d
       0.03269536 -0.10736118 0.09795165 0.05319086
000270 53 1f f8 3c b0 e8 67 3d 02 ec c0 3d 22 d5 a0 bd
       0.030288374 0.056618392 0.09420015 -0.07853152
000280 43 c6 29 bd 79 ba b1 3d 6e 26 21 bc 9d 6a dc 3c
       -0.041448843 0.08678145 -0.0098358225 0.026906306
000290 5b 2a bc 3d 1b 32 be 3c 92 c5 78 3d 2e 1a fa bd
       0.09187766 0.023217252 0.060735293 -0.12212025
0002a0 ac ab 4d bd a8 14 b2 bd 15 9a 70 bd f9 f7 bb bd
       -0.050212547 -0.08695346 -0.058740694 -0.091781564
0002b0 fe e7 93 3d f1 6c e9 3c c4 43 3a 3d 6d cd 16 3c
       0.072219834 0.02849433 0.045474783 0.009204251
0002c0 81 da 96 bb 6f c0 a6 3d 2a 24 fa bb cc 2a 3b bd
       -0.0046036844 0.081421725 -0.0076337056 -0.04569511
0002d0 5a d5 ad 3c 0e ad 2d 3d ef 32 7d bc 2e 13 63 3d
       0.021219898 0.042401366 -0.015454038 0.055438213
0002e0 9d 33 c1 bd 10 97 d8 bc 67 64 5a 3c 1d ce 7a bd
       -0.094336726 -0.02643922 0.013329602 -0.06123172
0002f0 51 4e e6 3d 1f 08 a4 3d f4 2d 78 3d 2a 3d 3b 3d
       0.112454064 0.080093615 0.0605907 0.045712627
000300 97 e8 c4 bc 97 99 9c bd 5e 22 bd bd 33 f5 5b bc
       -0.024036689 -0.076464824 -0.09235071 -0.013425159
000310 02 ca bb 3a 1c f6 0c bd ab aa bb 3d c0 18 e5 bd
       0.0014327171 -0.034414396 0.09163412 -0.11186361
000320 15 02 c7 3d 03 2c ef 3d 08 1d 8c bc d1 38 80 3d
       0.09717194 0.116783164 -0.017103687 0.06260837
000330 3c 86 94 bd 74 e8 85 3d 1b 14 8a bd c3 7e 7b 3d
       -0.07252166 0.065384775 -0.06742116 0.061400186
000340 5b e2 8b bd 9b bd 60 3c 83 f1 70 3d fd f8 25 bc
       -0.06830283 0.0137170805 0.058824074 -0.010130164
000350 b5 4b cc 3d 07 0b cf 3d 0b f5 b9 3d f6 b6 b8 3d
       0.099753775 0.10109525 0.09079941 0.09019272
000360 af d0 3e bd 39 09 48 3d 97 4c c6 bd ca 6d b3 3d
       -0.046585735 0.04883692 -0.09682577 0.08761175
000370 72 5b ea bb 0f 1e ec 3c 91 4c 96 3d bf 49 e0 bd
       -0.0071520144 0.028822927 0.07338823 -0.10951566
000380 01 bb aa 3b be d8 07 bb 9d 52 d6 3d 2a 99 95 3d
       0.005210281 -0.0020728554 0.10464976 0.07304604
000390 d9 6f 60 bd 72 41 c4 bd 26 4b ab bd ae d0 1b 3c
       -0.054794166 -0.09582795 -0.08363943 0.009510202
0003a0 54 11 a1 3c 10 89 48 3d 1c 88 14 bd ed 54 2e bd
       0.019661583 0.048958838 -0.036262617 -0.04256146
0003b0 d2 2a a4 bd d0 7c f7 3c ef 8a a5 3d 5f c3 12 bd
       -0.0801598 0.030210882 0.0808314 -0.03583085
0003c0 c3 09 be bc b4 d9 3d 3d a4 bc 86 bb 8b a6 ed bd
       -0.023198014 0.046350196 -0.004111843 -0.11604031
0003d0 bf 37 dd 3d 37 89 e2 3d 7c 11 45 3c 49 cf 91 bd
       0.10801648 0.11061328 0.012028094 -0.07119615
0003e0 58 f6 c2 bd a2 8b 84 bd 67 ed 61 3c 5a a4 83 3d
       -0.095196426 -0.06471945 0.013789511 0.06427832
0003f0 23 bb 59 bd 1f 7e e1 3d 47 85 d7 bd 5a 93 f3 3d
       -0.053156983 0.11010384 -0.105234675 0.118933395

rnn.bias_ih_l0 f4 [64]
000000 79 8e fa 3d b3 57 0e bd c6 76 0e bd 7d 11 dc 3c
       0.12234206 -0.034751605 -0.03478124 0.026863808
000010 f9 e1 9f bc 72 85 6c bd 50 40 c2 bd a6 8b 99 bc
       -0.019516932 -0.05774445 -0.09484923 -0.018743347
000020 65 a0 31 3d 97 e7 a0 bc 4a 36 05 3c 66 d7 bb 3d
       0.043365855 -0.01964168 0.008130619 0.09171943
000030 92 b6 6f bc 89 94 96 3d 17 7c ab bc 9d 41 e6 3d
       -0.0146309305 0.073525496 -0.020933194 0.112429835
000040 aa 2d 5a 3d 18 fc c6 3d 9c 5e a9 3c 5d c4 f3 3c
       0.053266205 0.09716052 0.020674996 0.02975672
000050 a9 c4 a4 3c 9c 7f f8 bc 94 7b da 3d 00 21 82 bd
       0.020113306 -0.030334286 0.10668102 -0.063539505
000060 51 14 be bd 42 f8 dd bd 3d 6c cb bd b3 c3 c4 bd
       -0.09281219 -0.10838367 -0.09932754 -0.09607639
000070 99 85 d9 bd 7f 58 33 bd 9c 73 b3 bc 66 8b 89 bd
       -0.10621185 -0.04378557 -0.021905713 -0.06716041
000080 5d ea ba 3d a2 21 5a bd 7c 77 c6 bd f2 60 98 bd
       0.091267325 -0.05325473 -0.096907586 -0.07440366
000090 7f 91 68 bd c7 1c 51 3d 24 aa 0e bd 4e ff 9b 3d
       -0.05677938 0.051052835 -0.034830227 0.07617055
0000a0 dc 3f bf 3d 2d b9 99 3d 86 9b 78 bd 54 61 86 3d
       0.09338352 0.075060226 -0.060695194 0.065615326
0000b0 23 5c cf 3d 82 47 05 3e 6a bb bc bd 0b eb 85 3d
       0.101249956 0.1301556 -0.09215434 0.065389715
0000c0 15 89 e7 3d 32 22 8f 3d a6 0c 87 bd e0 80 db bd
       0.11305443 0.06988944 -0.065942094 -0.1071794
0000d0 d7 16 56 bc bc df d0 bc 6e e0 d7 bd 31 44 ae bd
       -0.013066969 -0.02549731 -0.105408534 -0.085091
0000e0 8b 5b aa 3d 16 f5 cb bd 88 48 07 be e4 ea 33 bd
       0.08318242 -0.09958856 -0.13211262 -0.04392518
0000f0 03 25 71 bd a1 57 ee 3d 4b 46 c9 3d fc 9c b2 bc
       -0.058873188 0.11637808 0.098278604 -0.021803372

rnn.bias_hh_l0 f4 [64]
000000 cb d2 87 bb 2d aa 56 3d da ba c9 bc 23 6b ee bd
       -0.0041450015 0.052408386 -0.02462523 -0.116415285
000010 c0 a1 c3 bb c5 99 da bd 66 fa 66 bc 56 36 b7 bc
       -0.00597021 -0.106738605 -0.014097786 -0.022364777
000020 33 3b b6 bd 36 79 c4 3d 65 9f 83 bc a8 25 ee 3b
       -0.0889801 0.09593432 -0.016067216 0.0072676726
000030 87 8f d0 bd bb da 72 bd 8c 0a 86 3d 55 ae cd 3d
       -0.10183626 -0.05929063 0.065449804 0.10043017
000040 f6 77 2d bc f1 3b 78 ba c9 4b 23 bd 89 3e f8 3d
       -0.010587683 -0.0009469381 -0.039867196 0.12121303
000050 83 25 b2 3d 8a c0 a6 3c 4e 69 cf 3d ec d3 f9 3d
       0.08698561 0.020355482 0.10127507 0.12198624
000060 be 74 e9 bd ee 81 ca bd b6 11 65 3c e4 d2 f1 bc
       -0.1139922 -0.09888063 0.013981273 -0.029519506
000070 83 14 77 bd 4d 28 35 bc f2 45 62 bc dc 5b c6 3d
       -0.060322296 -0.011056972 -0.013810622 0.096854895
000080 d8 b5 68 3c 7a db 20 bb d6 11 e7 3d 0f 25 03 3e
       0.014203511 -0.002454488 0.11282699 0.12807105
000090 46 4d 77 3d 70 93 9d 3c 6b d4 d9 3d e6 11 c0 3d
       0.060376428 0.019235343 0.10636219 0.09378414
0000a0 ac 32 ee 3d ed 7e e2 bd 93 83 b9 3d 30 d8 fb bd
       0.11630759 -0.110593654 0.09058299 -0.12297094
0000b0 3e 8e 2d 3d 66 16 b4 bd 95 a0 ac 3d a3 a9 a3 3c
       0.04237198 -0.08793335 0.08429066 0.01997835
0000c0 de ad 31 bd 5a 03 7b 3a 40 f9 a6 3d 27 a1 be bd
       -0.043378703 0.00095753896 0.081530094 -0.09308081
0000d0 03 df cb 3d fe 80 35 bc e8 87 e6 3d 63 e2 5e bc
       0.099546455 -0.011078117 0.11256391 -0.0136037795
0000e0 ee 3a 09 3d 46 02 e7 bc 10 db e9 3d e7 f8 81 3d
       0.033503465 -0.028199326 0.11418736 0.063463025
0000f0 8e 6e 0a 3c 4d 62 05 3d a5 1f 7f 3d 44 a3 b6 bd
       0.00844921 0.03256445 0.062286038 -0.08917859

rnn.weight_ih_l1 f4 [64, 64]
000000 ea 0f 3c bd 3e ce 51 3d 2c 4c 3e 3d b8 2b 29 3a
       -0.045913614 0.05122208 0.046459362 0.0006453353
000010 76 ee f4 bd d3 1e fa bc 4c 4a 95 bd 54 7b 9f bd
       -0.11959545 -0.030532276 -0.07289562 -0.07787195
000020 2b 0e 2e bd 4f fa 84 bb e9 cd e7 3d 19 f4 93 bd
       -0.04249398 -0.0040581594 0.11318571 -0.07224292
000030 f7 08 ef 3d f1 50 8b bd 74 46 aa 3d f4 d3 c4 bd
       0.11671632 -0.06802548 0.08314219 -0.09610739
000040 46 c8 91 bc 9d 84 04 bc a4 4a a7 bd 29 ba 6d bc
       -0.017795693 -0.008088258 -0.081685334 -0.014509716
000050 7a 89 f6 bd 0d 20 15 bd 7c 62 3a bd df 60 c2 3d
       -0.1203794 -0.03640752 -0.04550408 0.09491133
000060 e7 89 ac bd ed fe cd 3c 2a 7b 7a bd 4b a3 a5 bd
       -0.0842474 0.025145972 -0.061152615 -0.08087786
000070 f6 9d c9 bd 56 1d e2 bb ce cb 16 3d 55 5a 8d bc
       -0.09844582 -0.00690047 0.036815457 -0.017254988
000080 de 94 9c bd 30 21 04 bd 24 df d2 3d 64 7c 79 bc
       -0.07645582 -0.032258213 0.10296467 -0.015227411
000090 d6 c5 a5 3d 03 9e 74 3d 15 f4 c4 bd 9b 79 b3 bc
       0.08094375 0.059721004 -0.096168675 -0.021908572
0000a0 a2 7c a0 bd c6 2d e9 bc 41 db c8 3d 30 93 b8 3d
       -0.07836272 -0.02846421 0.09807444 0.09012449
0000b0 0c e6 95 bd 73 b0 e4 bd fa 3d 17 3d 16 39 d0 bd
       -0.073192686 -0.111664675 0.03692434 -0.10167138
0000c0 49 17 12 bd ee 18 00 3c bf e5 dc bc ef 0d b0 3c
       -0.035666738 0.007818444 -0.02696502 0.021491019
0000d0 eb 3d 1a bc 9a 25 1f 3c 48 89 dc bc 67 85 6e 3c
       -0.009414176 0.009713555 -0.02692093 0.014558173
0000e0 1a 9b c7 3d 1f 84 01 be ca 66 4f bd cf 95 a4 bd
       0.0974638 -0.12648056 -0.050635137 -0.08036386
0000f0 18 f2 80 3d 51 22 e0 3d a9 ab 7b bd 68 72 6b bb
       0.06296176 0.10944045 -0.061443005 -0.0035926346
000100 28 e4 02 bd ce 9c a1 bc 0d 81 0e 3d 36 1e 50 bd
       -0.031955868 -0.01972809 0.03479104 -0.05081006
000110 28 de 94 bd e2 c5 e8 3b f0 19 e0 bd 83 01 c4 3d
       -0.072689354 0.0071036676 -0.10942447 0.09570601
000120 46 2a d9 bd 46 63 00 3d 9b 07 9d 3c 64 1a 50 3d
       -0.10603766 0.031344675 0.019168666 0.050806418
000130 20 13 39 3d 6a 31 d6 3d 87 a2 01 bc 08 e4 b1 3c
       0.045184255 0.10458644 -0.007912285 0.02171518
000140 ea 84 9c 3d a4 18 97 bd f8 d7 e7 bd 69 d3 e0 bc
       0.07642539 -0.07377747 -0.1132049 -0.027444558
000150 a9 dd 41 bc f7 6f 9a 3d d7 cf 5b bd 17 8f 58 bd
       -0.011832633 0.07540887 -0.05366501 -0.052870836
000160 50 7b a3 bd 8b ce 9e 3d 66 ea a3 bd f6 8f 46 3c
       -0.07982504 0.07754239 -0.08003692 0.012119284
000170 bb 24 38 3d b1 05 5b bd 61 9a e9 3c fe 9d 7d bd
       0.044956904 -0.053472225 0.028515996 -0.06191825
000180 d6 9d a1 3d 3c e1 37 bd 3e 56 db bd 2e 40 cf 3d
       0.07891433 -0.044892535 -0.10709809 0.10119663
000190 84 3d 86 bd 4d 27 b4 bc fc 42 fe 3d a2 a6 4a 3d
       -0.06554702 -0.021991396 0.1241512 0.04947532
0001a0 ba 86 3d 3d 40 5e 40 3d 33 eb 94 3a b8 c2 78 bd
       0.046271063 0.046964884 0.0011361599 -0.060732573
0001b0 50 b9 dc 3b 52 ca 41 3d f2 23 0d 3d ac a7 c6 bd
       0.006735958 0.04731209 0.03445811 -0.096999496
0001c0 7c 5f 38 bd 70 68 a5 3d 96 ca ce 3d 29 b2 67 bc
       -0.045012936 0.080765605 0.10097234 -0.014141598
0001d0 b9 e7 db bd ca df 30 3b c5 11 9c bd f9 55 84 bc
       -0.10737557 0.0026988857 -0.07620577 -0.016154276
0001e0 a9 20 a8 3c 89 d6 de bc 02 88 00 bd 6a 5b 04 3c
       0.020523386 -0.027201908 -0.031379707 0.008078435
0001f0 22 88 de bd b9 0b e9 bd 3d e5 c6 bc 48 2a 33 3d
       -0.10865809 -0.11379189 -0.024279231 0.043741494
000200 83 72 8b bd a1 dc 32 3d 7a d6 1d 3b 1e ae eb 3d
       -0.06808951 0.04366744 0.0024084137 0.115078196
000210 10 ad 63 3d 49 7b b3 3c fa 85 9d bd e4 f2 a7 3d
       0.055584967 0.021909373 -0.076915696 0.082006246
000220 5a db 23 bd 0c e1 0e 3d 03 ab 01 bb cf 2c ec bd
       -0.04000411 0.03488259 -0.0019785769 -0.11531984
000230 d9 23 8d bd 9b 36 ad 3d 8c 85 b2 3d b4 86 c2 bd
       -0.06891603 0.08457681 0.08716878 -0.09498349
000240 78 29 40 bd d2 4a d0 bd 2d d5 a0 3d 9a 24 b9 3d
       -0.046914548 -0.10170521 0.0785316 0.09040184
000250 d8 e0 89 3c f0 5b 55 bd 15 fb 81 bd 02 49 df 3b
       0.016830847 -0.05208963 -0.06346718 0.006814123
000260 21 49 d6 3d 9b 24 9b bd 9a 60 86 3c 64 9d 35 bb
       0.10463167 -0.07575341 0.016403485 -0.002771222
000270 00 ad d8 bd 3b 64 1f 3d 0a a0 01 be e4 b7 00 3d
       -0.10579872 0.038913947 -0.12658706 0.03142537
000280 56 32 94 bc 36 9d 90 3d ba e5 ac bd 4e cc a3 3c
       -0.018090408 0.070612356 -0.08442254 0.019994881
000290 1a b2 e2 3d 30 4d 52 bd b7 53 25 3d 85 86 da bd
       0.110691264 -0.051343143 0.04036304 -0.10670189
0002a0 1a 8b 05 bb 91 06 dd 3d 7b 8a fc 3c 37 da a3 bc
       -0.00203771 0.10792268 0.030827751 -0.020001514
0002b0 06 aa c4 bb 33 bb bd bd b9 fa eb 3d 88 a4 ab 3c
       -0.0060017137 -0.09264221 0.11522431 0.020952478
0002c0 fe b2 5f bd ce 2b ed bd f3 e6 c3 3d 47 7f b1 3d
       -0.05461406 -0.11580621 0.095655344 0.08666854
0002d0 5d a7 c5 3d c9 1e 75 bd fb 32 ab bd 75 b6 83 bd
       0.09651063 -0.059843812 -0.08359333 -0.06431285
0002e0 8b d3 0a 3d 15 10 e4 bd e0 5d 07 3c ca eb dd 3d
       0.03389315 -0.1113588 0.008262128 0.10835989
0002f0 4b 79 fb bd 2b e9 c9 bb e3 d2 1d bd a2 4c a2 bd
       -0.12278994 -0.006161829 -0.038531195 -0.07924773
000300 ab 7d c1 3d 60 38 56 bb be b0 41 bd c9 0f 17 3d
       0.094477974 -0.003268741 -0.047287695 0.03688029
000310 dc 28 8e bd d2 a1 33 bb 46 c7 2f bd 44 40 e4 ba
       -0.06941387 -0.0027409685 -0.04291465 -0.0017414172
000320 21 44 9b 3d 7e 27 00 3e 74 b9 af bd a6 dd 68 3d
       0.07581354 0.12515065 -0.08580294 0.056852005
000330 45 b0 f9 3d e3 01 95 bc d1 ff eb bd b7 b9 d4 bc
       0.12191824 -0.018189376 -0.115234025 -0.025967462
000340 23 60 a2 3d 1e 52 0e 3d 69 2a 98 3d 5e f8 8c 3d
       0.07928493 0.03474628 0.07429964 0.0688331
000350 84 98 a7 3d 4f 86 8f 3d 60 5c b0 bd a8 40 7b 3c
       0.08183387 0.07008039 -0.08611369 0.0153352395
000360 83 bd be bd fe e8 b6 bd e6 85 95 3d c4 14 9d bd
       -0.0931349 -0.089311585 0.0730093 -0.07669976
000370 61 85 2e 3d e9 73 75 bd ce 16 f8 bd 70 92 60 3d
       0.04260767 -0.059924994 -0.12113725 0.054827154
000380 e6 e3 3f bd e9 ca bc 3d dd bc 24 3d 70 b0 35 3b
       -0.0468482 0.092183895 0.040219177 0.0027723573
000390 aa e5 a0 bd dc 92 c3 3c 2a e6 d0 bd ea 93 fb bc
       -0.07856305 0.023873739 -0.1020015 -0.03071018
0003a0 76 58 54 3d 65 1a 0f 3d 25 60 c9 bc 04 37 17 3c
       0.051842175 0.03493728 -0.024581978 0.009229425
0003b0 9d 29 fa 3d a1 4c dd 3d 2b 54 19 bc 5f 2f db bd
       0.12214968 0.108056314 -0.009358446 -0.10702395
0003c0 fc 42 bf 3d 95 6c dc 3c 0c a8 22 3d 4b 06 82 bd
       0.09338948 0.026907245 0.039711043 -0.063488565
0003d0 ec 0a 01 bc 10 2a 88 3c 35 d5 ba 3c 68 72 df bd
       -0.007876139 0.01662162 0.022806743 -0.10910493
0003e0 51 34 3a bd 03 d6 c9 3d bd 5a c9 bb 91 dc 08 bd
       -0.04546005 0.098552726 -0.00614485 -0.033413474
0003f0 54 80 2c 3c 44 2b 33 3c d9 b3 ca bc a7 dd ef bb
       0.010528643 0.010935608 -0.024743961 -0.007320124

rnn.weight_hh_l1 f4 [64, 64]
000000 cd b5 bb 3d 8e b6 31 3d b1 18 7d bd 24 57 cf 3c
       0.09165535 0.04338699 -0.061791126 0.025310107
000010 89 fe 71 3c df da a4 3d f2 d8 84 bd 18 a4 ca 3d
       0.014770159 0.08049559 -0.064866915 0.0989458
000020 79 6b eb bd 8e ac ee 3c af 7d a3 3d 49 35 8e 3d
       -0.11495108 0.029135015 0.079829566 0.06943757
000030 aa b6 6f 3d 2f 66 42 3d 88 6d a5 bd 8b 80 24 3d
       0.05852381 0.04746073 -0.08077532 0.04016165
000040 0d d0 f8 bd 98 bc 02 3d dc 14 aa 3d 88 3f 0c 3d
       -0.121490575 0.03191814 0.0830476 0.034240276
000050 e1 a1 7a bc 97 14 17 3d 45 94 af bd 0a dc 1e bd
       -0.015297384 0.03688487 -0.08573202 -0.038784064
000060 60 bf 8a 3d de fb e8 3d ce 71 95 3c 59 ae 8b bd
       0.06774783 0.11376165 0.018242743 -0.068203636
000070 a0 96 34 3d 48 6b 58 3d 6c 0f 7c bc 1e e8 db 3c
       0.04408896 0.052836686 -0.015384536 0.02684408
000080 24 fc 96 3d 0b 84 cb 3d 78 76 12 3d 4c e8 01 be
       0.07372311 0.099372946 0.03575751 -0.1268627
000090 4e e2 d8 3d 8e 7b d6 bd 50 e2 c9 bd e5 1b 89 3d
       0.10590039 -0.10472785 -0.09857619 0.066947736
0000a0 84 b1 91 bd c3 aa 97 3d a5 d5 cd bd 3c ef a9 3c
       -0.071139365 0.07405617 -0.10050515 0.020743959
0000b0 4f df d8 bb e4 0b 8c bc 52 7e bf 3d 2f f3 0a 3d
       -0.0066184173 -0.017095514 0.093502656 0.033923324
0000c0 77 29 57 bd d5 7b 90 bd 43 6b 8d bd 96 f6 94 bc
       -0.05252978 -0.07054869 -0.06905224 -0.018183988
0000d0 cf ef f9 3d 61 57 ad 3d d6 e6 5b bc c1 b5 8c 3d
       0.12203943 0.08463932 -0.013421735 0.06870604
0000e0 ab c2 05 be 74 cb a9 3c 23 a1 a4 3d d5 9a 6c 3d
       -0.13062541 0.020726897 0.08038547 0.057764847
0000f0 2f 56 a8 bd d1 b6 a2 bc b5 0a 88 3d 64 65 10 bd
       -0.08219563 -0.019862564 0.06642667 -0.035252944
000100 27 e7 03 bd 0c dd d1 bd 38 ed 87 ba 65 53 8a bd
       -0.032202866 -0.102472395 -0.0010370379 -0.067541875
000110 ea 6a 84 bd dc 11 cb bd 40 55 de bd 52 ee d5 3d
       -0.06465705 -0.09915516 -0.10856104 0.104458466
000120 6f 90 ef bd 37 66 99 bd 99 d7 81 bd c2 b5 5d bd
       -0.116974704 -0.07490199 -0.0633995 -0.054128416
000130 17 a0 9b 3d cc 66 78 3d ec d0 e1 3b a5 4c a9 3d
       0.07598894 0.06064491 0.0068913605 0.08266572
000140 4c a6 0c 3c 7e e8 bc 3d 1c 7d 24 3b 70 48 4c 3d
       0.00858457 0.09224032 0.0025098985 0.04987377
000150 f4 d4 b8 3d 7d 77 2b bc 2e 57 f4 3d ff 91 09 3d
       0.090249926 -0.0104655 0.11930691 0.0335865
000160 8c 1f 12 3d 59 bb c5 3d dc 19 65 bd b9 22 7b bd
       0.035674617 0.09654874 -0.055932865 -0.06131241
000170 e0 97 fd 3d 10 18 5f bc 40 96 b1 bd 2b ab a9 3d
       0.123824835 -0.013616577 -0.08671236 0.08284601
000180 76 a3 b8 bd 00 8a 6f 3d ae c8 0f bc e2 0f 3a bd
       -0.09015553 0.058481216 -0.008775873 -0.045425303
000190 9a 96 f7 bd d2 ca 8a 3d 92 a3 bd 3c 6c 07 d0 3d
       -0.12089272 0.06776966 0.023149285 0.101576656
0001a0 2d 50 0b 3d 98 c8 8f 3c 84 c5 81 3d 2c a9 ed 3d
       0.03401201 0.017551705 0.06336501 0.116045326
0001b0 0d 19 00 3e 95 ee bb 3d a1 74 d7 3d 30 d2 45 bd
       0.12509556 0.09176365 0.10520292 -0.048296154
0001c0 25 34 35 3d e0 4c 22 3d b2 84 22 3d de 18 ec 3c
       0.044239182 0.039624095 0.03967733 0.028820451
0001d0 d8 fe e6 3d 37 3a 2b bd cf e4 55 bd fd e1 77 3c
       0.11279076 -0.041803565 -0.052220162 0.015129563
0001e0 a8 fd 5d 3d 2a b2 c3 bd 00 11 13 bd 42 c0 02 be
       0.054196984 -0.095554665 -0.035904884 -0.12768653
0001f0 60 7d 64 bd 0e b9 c7 3d d4 b3 ef 3d c2 de d6 3c
       -0.05578363 0.09752093 0.11704221 0.026229266
000200 d7 a1 10 bd fd 53 19 bd 36 ed 70 bd 7e 52 98 bd
       -0.035310593 -0.037433613 -0.058819972 -0.07437609
000210 3f 7d e0 bc b9 52 c7 3d cc 62 0d 3d 9c e2 72 3d
       -0.027403472 0.09732575 0.03451805 0.059298143
000220 fe d7 b1 bd fe 02 58 3d bf f3 27 3d 5e ab c4 3d
       -0.08683775 0.05273723 0.04100394 0.09602998
000230 6d 7d 57 bd 5b 76 bf 3d 11 eb 9b bd 84 93 4e bc
       -0.05260985 0.093487464 -0.07613195 -0.012608413
000240 a1 37 39 bc f4 00 a4 3d 33 13 b0 3d f0 4c fc 3c
       -0.011304767 0.08007994 0.08597412 0.030798405
000250 60 5d 96 3d 67 a4 c1 3d 5e a6 eb 3d 5f d2 88 3d
       0.073420286 0.094551854 0.115063414 0.0668075
000260 6d cb 44 bc 25 b8 44 3d d2 a5 18 3d d6 83 90 3d
       -0.012011391 0.048027176 0.037267514 0.07056396
000270 b8 2d 9b 3c 88 47 c2 3d 7a 97 cc 3b aa d6 8c 3d
       0.018942699 0.094863 0.0062436434 0.068768814
000280 0c 0a a5 bd b5 13 a4 3d cd c7 bd bd b4 4e ea 3d
       -0.08058557 0.08011571 -0.092666246 0.11440793
000290 b1 f3 bb 3d c6 99 21 bd 85 e1 c3 bd e2 01 df bd
       0.0917734 -0.03945329 -0.09564499 -0.10889031
0002a0 dd 9a fa 3d bc 77 0e 3e 7b a6 c2 bd 66 e9 e6 3d
       0.12236569 0.13912863 -0.0950441 0.11274986
0002b0 72 ac fb 3c 15 b1 18 3d a2 76 52 bd 1a 61 9c 3d
       0.030721877 0.037278254 -0.05138267 0.07635708
0002c0 3d 3f e9 3d c1 0f 35 bd 4b 4e d3 3d 56 19 62 bd
       0.11389015 -0.044204477 0.103176676 -0.055199943
0002d0 7a 4c ea bd 26 7b 27 bd 3e 7a 6c 3d 36 22 af 3c
       -0.11440368 -0.040888928 0.057733767 0.021378618
0002e0 e5 67 18 bd 0d 7a a8 bd fc 47 f3 3d 56 05 b1 3d
       -0.037208457 -0.08226404 0.11878964 0.08643596
0002f0 39 91 b1 bd 6f e2 eb bd 0f bb f1 bd 42 b7 45 bd
       -0.08670277 -0.11517798 -0.11803257 -0.04827047
000300 a5 04 57 bd ce 8d 6f 3d 97 e4 98 3d b7 78 8e bc
       -0.052494664 0.058484845 0.07465475 -0.017391546
000310 f3 76 99 bb 7a c5 63 bc 8c 9a 2d 3d b4 84 76 3c
       -0.0046833693 -0.013902063 0.042383716 0.015046287
000320 6e 6a 0a 3d 5a 88 cb bd 80 1b dd 3d 24 c8 dd 3d
       0.033792906 -0.09938116 0.10796261 0.108291894
000330 36 65 56 bd 03 3b ab 3d 02 7b c2 3c 3d 8b d6 3d
       -0.052342616 0.08360865 0.023740295 0.10475776
000340 cd 20 39 bd b1 f8 81 bd 78 23 c6 bd 34 90 ee bd
       -0.045197297 -0.06346262 -0.09674734 -0.11648598
000350 09 44 d3 bc 35 d7 e8 3d 0b 3c ef bd 8f 89 2d 3c
       -0.025789278 0.113691725 -0.11681374 0.010591879
000360 c1 14 77 3d 63 07 b4 3d 2b 64 af 3d 93 1b 04 bd
       0.060322527 0.087904714 0.085640274 -0.03225286
000370 30 72 14 bd 19 8d 04 bd 28 a5 c5 bd a6 f6 a4 bd
       -0.03624171 -0.032361124 -0.09650642 -0.08054857
000380 32 6a a7 bd 10 e7 45 bd 50 0b 2e 3d 81 34 93 3d
       -0.08174552 -0.04831606 0.042491257 0.07187749
000390 10 53 73 3d 78 7a 8e 3d 12 99 68 ba 37 cf b1 bd
       0.059405386 0.06956953 -0.0008872907 -0.08682101
0003a0 23 9a d7 bd 28 31 64 3a ac 14 8c 3d 46 d8 87 b9
       -0.10527446 0.00087048346 0.0683988 -0.00025910343
0003b0 66 86 6f 3c e9 75 65 3d 6d 48 6c bd ae f1 3f 3d
       0.014619445 0.05602065 -0.057686258 0.046861343
0003c0 50 9e bc bc 59 42 53 bd 86 de 51 bd ff 48 0c 3d
       -0.023024708 -0.051576946 -0.051237606 0.034249302
0003d0 fd 87 ac 3d 18 a9 f1 bd 2b a4 d1 bd 1b 39 97 3d
       0.08424375 -0.1179983 -0.10236391 0.07383939
0003e0 06 59 6a 3d 7a b6 88 bd f4 01 b8 bb ff 6f a6 bd
       0.057213806 -0.0667543 -0.005615467 -0.0812683
0003f0 a9 49 07 3e 81 89 e6 3d 2e 7b 1d 3d 75 1c 8e 3c
       0.13211693 0.112566955 0.03844755 0.017347554

rnn.bias_ih_l1 f4 [64]
000000 05 9b bc bd ea ce b7 3d 81 a7 93 3b 2e a0 09 3c
       -0.09209255 0.089750126 0.004506052 0.008400006
000010 50 3f 98 bd 54 1c 35 3c 2b 11 a9 bd 68 85 62 bd
       -0.07433951 0.011054117 -0.08255228 -0.055303007
000020 34 c4 61 bd f1 cf 4e bd c2 e7 27 bd be b9 83 3c
       -0.055118755 -0.050491277 -0.040992506 0.01607978
000030 c6 34 53 3c 1c d5 7c bd 7b b8 df 3d 73 88 a2 3d
       0.012891 -0.061726674 0.10923859 0.07936182
000040 09 b3 88 bc e3 f4 d4 bd 1f 91 e0 bd 52 a9 c9 3d
       -0.016686933 -0.10398271 -0.1096518 0.098467484
000050 3c 0a 9b bd 3b 84 9f 3d 03 47 05 bc 37 29 9b 3d
       -0.075703114 0.07788893 -0.008134606 0.075762205
000060 f4 4e 0d bd c9 7c cc bd db 89 b1 3d b6 69 1f bd
       -0.034499124 -0.099847384 0.08668872 -0.038919173
000070 ab 01 79 bd 94 3c 80 3c d9 db 88 bc f7 d0 e4 3c
       -0.060792606 0.015653886 -0.016706394 0.027931673
000080 47 23 b4 bd 4b de 91 bd 32 18 e8 3d fa fa 83 bd
       -0.08795791 -0.07122477 0.1133274 -0.06444354
000090 99 21 43 bd 01 ce d7 bc 2f dc cd 3c c3 f9 a3 bd
       -0.047639463 -0.026343348 0.025129406 -0.08006623
0000a0 79 65 06 bd e3 23 4b bd ac f8 c9 3d c9 2b f5 3d
       -0.032811616 -0.04959477 0.098618835 0.11971242
0000b0 6f 32 d4 bd ee 1a c0 3d 07 26 12 3d f4 24 ea bd
       -0.10361182 0.093801364 0.035680797 -0.114328295
0000c0 14 1f 60 bd e3 0f 05 bd 35 90 cd 3d 62 54 76 bd
       -0.05471714 -0.032485854 0.10037271 -0.060139067
0000d0 bc e9 86 bd 15 27 01 3d cb 0d 63 bd 08 85 43 3c
       -0.0658755 0.031531412 -0.055433076 0.011933573
0000e0 40 c5 69 bd 31 a3 96 b9 3b b9 a3 3c 8b 13 b8 bd
       -0.057072878 -0.00028731817 0.019985786 -0.089881025
0000f0 e3 33 e5 3d e1 bd 88 3d e7 97 da bd 9c e5 d9 3d
       0.11191537 0.066768415 -0.10673504 0.10639498

rnn.bias_hh_l1 f4 [64]
000000 a0 b8 d9 bc 1e c0 c9 bd 73 a8 3a 3d 27 79 33 bd
       -0.026577294 -0.098510966 0.045570802 -0.04381671
000010 2e f1 c5 3d 95 60 b8 bd 79 82 c7 3d 82 47 06 3e
       0.09665142 -0.090027966 0.097416826 0.13113216
000020 5c 44 ed bd a1 f7 82 bd df 1f bb 3d 04 95 d2 3d
       -0.11585304 -0.06394888 0.09136938 0.10282329
000030 f8 68 81 bd 6c 73 89 bd f0 68 0d 3d d7 b8 ca 3d
       -0.06318849 -0.06711468 0.034523904 0.09898537
000040 9e 0f a6 3d cd 22 a8 3c c1 40 e8 3c 55 d1 e9 bc
       0.081084475 0.020524407 0.02835119 -0.0285422
000050 fe 20 1f 3d 25 4d ae 3d ee f8 c3 3d 38 01 20 bc
       0.038849823 0.08510808 0.09568964 -0.009765916
000060 18 95 5f 3c b0 b4 d5 3d bc e6 85 bd f0 ff 8d 3d
       0.013646387 0.10434854 -0.0653815 0.06933582
000070 8c 60 85 3d cd 48 ad bd 73 a4 a6 3d d4 a3 0e bd
       0.065125555 -0.08461151 0.08136835 -0.034824207
000080 56 55 28 3d 2c b6 62 ba 94 c2 bc 3d 18 5d bb bd
       0.041097008 -0.00086483615 0.092168 -0.091486156
000090 cb 24 35 3d c8 60 df 3d 06 a0 91 3d 00 9d 4b bd
       0.04422454 0.109071314 0.071106 -0.049710274
0000a0 6c 4a d1 bd a6 57 e1 3d c2 18 9d 3d b6 18 b8 3d
       -0.10219273 0.11003046 0.07670738 0.08989088
0000b0 3a d4 19 bc 7e ce 62 3d 16 43 86 bd 16 6c 31 bc
       -0.009388978 0.055372708 -0.065557644 -0.010828992
0000c0 fa 67 7d bd 38 eb 0f 3d ea 00 f3 bd e0 77 94 bd
       -0.061866738 0.03513643 -0.11865409 -0.07249427
0000d0 39 a8 96 3c 57 12 63 3d d5 e3 a6 bd f3 5a ca bc
       0.018390762 0.055437412 -0.08148924 -0.024701571
0000e0 cc 91 e0 3c 31 4a 67 3d 57 21 a2 3d 3c 5b 95 bd
       0.027413271 0.05646724 0.07916515 -0.07292792
0000f0 74 55 31 3d e7 20 f5 bd e7 15 be bd da ee ba 3d
       0.043294385 -0.11969166 -0.09281521 0.091275886

fc.weight f4 [5, 64]
000000 5f d9 ec 3b d5 14 fb bd 46 60 8c bb 0b 61 d2 bd
       0.007228061 -0.12259833 -0.0042839376 -0.10272416
000010 bd 6f bd bc 11 ac 8c 3d 1f 8b 4b bd a4 4d 26 3d
       -0.02312457 0.068687566 -0.049693223 0.040601388
000020 81 31 90 3d 5c f3 42 3c 08 cd 0d bb 0c da c9 bd
       0.07040692 0.011898842 -0.00216371 -0.09856042
000030 ee 9b 56 bd 9f 09 e8 3d 49 4f 28 bc 85 62 be 3d
       -0.0523948 0.1132996 -0.010272809 0.09296135
000040 5b 9a 63 ba b0 79 78 bc 7f aa aa bd f1 bc bc bd
       -0.00086823636 -0.015165731 -0.08333301 -0.09215725
000050 f6 6b 7e 3d f2 55 4e 3a 1f 0a 9f bd 1e 72 1b 3c
       0.06211468 0.0007871083 -0.07765602 0.009487657
000060 75 f0 2e bc 01 5a b0 bd 7d 95 8b 3d 04 c3 c1 bd
       -0.010677447 -0.08610917 0.06815622 -0.094610244
000070 7f 64 d1 3d 59 23 37 3c 9d fd a4 bc ab 5e bc 3d
       0.10224246 0.011177861 -0.020140463 0.09197744
000080 05 d1 b9 bd bb be a6 3c eb 07 d9 3d 48 56 2f bd
       -0.090730704 0.02035462 0.10597213 -0.042806894
000090 33 bb 4e 3d 3d a9 fe 3d 27 e8 b7 3d 16 87 e1 3d
       0.050471496 0.124346234 0.089798264 0.11012094
0000a0 c1 79 50 bd 77 dc 99 3d ac 57 ed 3c 70 80 ae 3d
       -0.050897364 0.075127535 0.02897247 0.08520591
0000b0 e6 35 d3 bb b0 70 ce bd 92 48 11 3d 85 a5 01 bd
       -0.006445634 -0.10080087 0.0354696 -0.031651992
0000c0 9c 3e 8b 3d d9 53 e0 bd c1 d4 33 bd dd cb 91 3c
       0.06799051 -0.10953493 -0.04390407 0.017797405
0000d0 3c 13 49 bd 5e 2e fb bc b1 39 a6 3d c3 97 6c bc
       -0.04909061 -0.030661758 0.081164725 -0.01444048
0000e0 b5 7c 0a 3d a7 d0 d4 3c 74 71 b8 3d c2 f5 13 bc
       0.033810336 0.0259784 0.090060145 -0.009030761
0000f0 8b c3 8e 3d b6 ee 79 bd 81 0a 96 bd d2 d4 1a 3d
       0.069708906 -0.061018668 -0.07326222 0.037800618
000100 1c 4b 8a 3d a9 2c 61 3c 4d b9 0f bc 52 f8 c4 bc
       0.06752607 0.013743558 -0.0087722065 -0.02404419
000110 53 63 11 bc d6 4a 6e 3b 82 9c b3 3d 1a 14 b8 3d
       -0.008873778 0.0036360524 0.08770086 0.08988209
000120 99 11 13 3d a7 af 76 bd b9 69 d1 3c 6c 3d ca bd
       0.035905454 -0.06022611 0.025563108 -0.098749965
000130 f6 19 e9 3d 2a 44 73 3d 9f 16 50 3d 72 aa b5 3d
       0.11381905 0.05939118 0.050802823 0.088704005
000140 2f 3d 20 bd 1a 76 62 bd 1c 6f e9 bd 3c 66 e5 bc
       -0.03912085 -0.05528841 -0.113981456 -0.02800285
000150 a7 23 87 3d 33 9d 86 bd 8f 9e ec 3d 6d 97 42 bd
       0.06598597 -0.06572952 0.1155368 -0.047507692
000160 83 15 f2 bd 73 89 80 bd d7 43 1a bd 24 31 60 3d
       -0.11820509 -0.06276216 -0.037662353 0.054734364
000170 89 6e 82 bd 18 59 2b bd e2 2b 81 3d d9 0a c3 3d
       -0.06368739 -0.041833013 0.06307198 0.095235534
000180 c7 ab e8 bc c7 b2 a8 3d 5c 4a 9d bb f8 4b d4 bd
       -0.028402222 0.08237224 -0.004800124 -0.103660524
000190 f3 3a 81 3c 53 ea ec bd 04 ca b9 bc ae eb b6 3b
       0.01577518 -0.11568131 -0.022679336 0.0055822944
0001a0 77 8f 18 3b 2b 82 9a 3c 10 83 ec 3d 84 87 6e 3d
       0.002327887 0.018860897 0.11548436 0.058234707
0001b0 22 67 62 3d 72 c6 a9 3d cb 1c da 3c 03 ff bc 3d
       0.055274136 0.082898036 0.026625058 0.09228327
0001c0 ef 81 94 3d d6 95 7e bd fc 9b 99 bd d5 76 a6 bd
       0.07251345 -0.062154613 -0.07500455 -0.08128134
0001d0 57 41 bc 3c b4 ce 1b 3c ec 43 f6 bd 10 b6 39 3c
       0.022980375 0.009509731 -0.12024674 0.011334911
0001e0 9f a5 98 3d 45 61 75 bd cd 6f 06 3c 4f a7 84 3d
       0.07453465 -0.059907217 0.008205366 0.06477224
0001f0 9e d4 b9 3d 9b 4c e9 3d 24 25 60 3d 5c 58 d4 3d
       0.09073757 0.113915645 0.05472292 0.10368416
000200 ff 18 a3 3b c7 80 9c 3d a8 b3 cc bd 24 df 95 bd
       0.004977345 0.0764175 -0.09995204 -0.07317951
000210 f5 15 99 3d ec 26 9f ba 69 f0 6f bd ef 22 19 bc
       0.07474891 -0.0012142337 -0.058578882 -0.009346708
000220 71 cd 03 3e ed 0c c3 bc 49 ee 07 3d fe db e9 3d
       0.12871338 -0.023809874 0.03318623 0.11418913
000230 c9 3d 7d bd 79 10 80 bd 1c eb 83 bd 84 e2 02 bd
       -0.0618265 -0.06253142 -0.06441328 -0.031954303
000240 3b fc e1 bd 25 e4 92 bd 8f 7b 7a bd 43 02 e0 bc
       -0.11034437 -0.07172421 -0.06115299 -0.027344828
000250 2e c2 99 bc c8 51 b6 3d b7 a2 c8 3c 58 88 f7 bc
       -0.01876935 0.08902317 0.024491651 -0.030216381
000260 73 69 c7 bd d0 b2 6a bd 39 4f 60 3d d3 6f 22 3c
       -0.0973691 -0.057299435 0.054763053 0.009914356
000270 c8 d6 7f bc cf cc 40 bc 9d 7d 9c bc b4 ae 79 bd
       -0.015615173 -0.01176758 -0.019102866 -0.060957626
000280 db 04 47 3c 51 a6 17 3d 45 ca af 3d b4 52 09 3d
       0.012147154 0.037023846 0.08583502 0.033526137
000290 99 2b 2b bd b4 1c e4 bc 83 8c 37 bd c9 b2 e4 bc
       -0.041789625 -0.027845718 -0.044811737 -0.027917283
0002a0 22 24 b9 bb 8c 77 5c bd 04 61 ee bc b7 e0 08 bd
       -0.0056500593 -0.053824946 -0.029098995 -0.03341743
0002b0 83 c8 bf bc 73 bd f9 3b 2b ad ea bc e4 03 b3 bd
       -0.023411041 0.007621461 -0.028647026 -0.087409765
0002c0 ec 03 7a 3c d7 e6 f1 bb 06 66 c7 bd e7 8e 97 3d
       0.015259724 -0.0073822546 -0.09736256 0.07400303
0002d0 f9 69 7a bd 46 87 a4 bd be 9b 9f bd 1b f7 0a bc
       -0.06113622 -0.08033614 -0.07793377 -0.008481766
0002e0 0e e7 b3 3d 2f 16 ad bd 95 bd d5 3d a7 c1 98 3d
       0.087843046 -0.08451497 0.104365505 0.07458811
0002f0 e1 98 d5 3c 39 88 8a 3d 9d 2e 9b bd 63 07 a8 38
       0.026073875 0.06764264 -0.0757725 8.01224e-05
000300 3d ba f1 bd 86 1e 49 bd 5d 19 d9 3c 89 b2 d9 bd
       -0.118031 -0.049101375 0.026501352 -0.10629756
000310 3d 2d 55 bd 79 5e b1 3d aa ed ae bc 2d b0 95 3b
       -0.052045096 0.08660597 -0.021353561 0.004568121
000320 37 32 9d bd 53 86 8c bd 64 5c 0e 3d 4c d4 05 be
       -0.07675593 -0.06861558 0.03475608 -0.13069266
000330 c0 2b bc bd a1 70 39 3d 2a 48 9b bd e5 2e a9 3d
       -0.09188032 0.045273427 -0.075821236 0.082608975
000340 98 2a e7 bc cc 38 4f 3d 0c c0 d1 3a 9f 1f c9 3d
       -0.028218552 0.050591275 0.0016002669 0.09820484
000350 97 84 aa bd a1 2a 03 be 20 e4 f2 bb 52 6c 85 3d
       -0.08326071 -0.1280923 -0.0074124485 0.06514801
000360 a6 e0 f7 3c 1a f6 aa 3d 4b 4a 2d bd 81 94 7b bd
       0.030258488 0.083477214 -0.04230718 -0.06142092
000370 6e 7a df 3d 46 99 bd bc d1 9f 60 bd d6 c6 45 bd
       0.109120235 -0.023144376 -0.054839913 -0.048285328
000380 1a 8f db bd 1a c9 93 bd a0 b5 6b 3d 84 4b d0 bd
       -0.10720654 -0.072160915 0.057546258 -0.101706535
000390 97 5b ff bd 85 8d 6d 3d b1 99 b4 bd 86 af d8 bd
       -0.12468641 0.05799629 -0.08818377 -0.105803534
0003a0 83 67 27 3d 85 cd 0c 3d 94 98 be bd 77 16 53 3d
       0.0408702 0.034375686 -0.09306446 0.051535096
0003b0 6d 70 a3 3c c8 f0 6a 3d 59 d6 ca bd 8b 55 a2 bd
       0.01995107 0.057358533 -0.09904165 -0.07926472
0003c0 8a 9f 7f 3d 47 a4 dd bd 4e ea fb 3d 93 f4 9c 3d
       0.062408008 -0.10822349 0.123005494 0.07663836
0003d0 d9 a3 5b 3d 6f 97 cd 3d 8a ea b7 bd d5 49 01 3b
       0.053623054 0.10038649 -0.08980282 0.0019727845
0003e0 13 4e e1 bd 22 dc 81 bc 70 52 f1 3c 36 3d 88 3d
       -0.110012196 -0.015852038 0.029458255 0.066523
0003f0 02 a3 fd 3c fa 77 db 3d 50 19 56 3d d0 61 bf 3c
       0.030961517 0.10716243 0.052270234 0.02336207

fc.bias f4 [5]
000000 0f 69 d4 bb df 30 e0 bd e7 4a 7d 3d 99 18 11 3d
       -0.0064822505 -0.109468214 0.06183901 0.03542385
000010 cc 85 58 bc
       -0.013215493
