nasdaq_trading_bot/models/rnn/best_rnn_model.pth (torch, 59445 bytes, 10 tensors)

rnn.weight_ih_l0 f4 [64, 15]
0	0x3dca78ef	0.098863475
1	0xbd1cd559	-0.0382894
2	0x3dd7d1b4	0.105380446
3	0xbd9a04b4	-0.07520428
4	0xbd10719c	-0.035264596
5	0xbceecab8	-0.029149398
6	0x3dbd9ca1	0.0925839
7	0x3e2e86bd	0.17043586
8	0xbc65ffd6	-0.014038047
9	0xbda86f4b	-0.082243524
10	0x3cdf9f35	0.027297596
11	0x3c8f4418	0.017488524
12	0x3d4aae3f	0.04948258
13	0x3d5393f4	0.05165477
14	0xbde9b86d	-0.114121296
15	0x3ddeedf5	0.108852305
16	0xbd3e38c6	-0.046440862
17	0xbe0ea1e3	-0.13928942
18	0x3d1f5256	0.03889688
19	0x3dd2ce79	0.10293288
20	0x3c888736	0.016666036
21	0xbe1dba37	-0.15403067
22	0xbd2a8ba0	-0.041637063
23	0x3d82d7f2	0.063888445
24	0x3d4b96d7	0.0497044
25	0x3c36da9c	0.011160519
26	0x3de0e0e7	0.10980397
27	0x3b43e477	0.0029890814
28	0xbd98443f	-0.07434892
29	0xbe0a95b0	-0.13533664
30	0x3d2becbc	0.041973814
31	0xbdb863c9	-0.090034075
32	0xbd9c23c6	-0.07624011
33	0x3d289b09	0.041163478
34	0x3d5b603e	0.05355858
35	0x3dee4cb4	0.11635724
36	0xbe1d37e2	-0.15353349
37	0xbd9d3e6c	-0.07677922
38	0x3a935a96	0.0011242207
39	0x3ddc9176	0.10769932
40	0x39ca3afe	0.00038572395
41	0xbc7c22e6	-0.01538918
42	0xbc88e5a8	-0.016711071
43	0xbdd0e9ff	-0.10200881
44	0x3d70bc99	0.05877361
45	0x3cd5295d	0.0260207
46	0x3d3b9e5e	0.045805328
47	0x3d89f40e	0.06736003
48	0xbd2c1dba	-0.042020537
49	0xbd2104f9	-0.039311383
50	0x3a1b5f15	0.0005926949
51	0xbda78533	-0.081797026
52	0xbd8647f8	-0.06556696
53	0xbdb7a707	-0.08967405
54	0x3d279766	0.04091587
55	0x3c52cce0	0.012866229
56	0xbcfaefa0	-0.03063184
57	0xbde683ce	-0.112556085
58	0x3db50ba1	0.08840109
59	0xbccfadca	-0.025351424
60	0xbc931996	-0.017956536
61	0x3c91db75	0.01780484
62	0xbd7a7504	-0.06114675
63	0x3d6ff50b	0.0585833
64	0xbca95dc9	-0.020674603
65	0xbcc09c1f	-0.023511944
66	0xbde51da6	-0.111872956
67	0x3d9617a6	0.07328729
68	0x3d8996b0	0.067181945
69	0xbdae59ff	-0.08513259
70	0x3cc42779	0.023944603
71	0xbdd3cb36	-0.10341494
72	0xbbb19ca4	-0.0054202843
73	0xbd0f78d0	-0.035027325
74	0xbe05947e	-0.13044927
75	0xbd9d7f16	-0.07690255
76	0x3cba895d	0.022770578
77	0x3dbfe237	0.09369319
78	0xbd814798	-0.063124835
79	0xbd6c4691	-0.057684485
80	0x3dfe33a3	0.12412193
81	0x3de90b2d	0.11379085
82	0x3e06a877	0.13150202
83	0xbd1b0696	-0.037848078
84	0x3d75346a	0.05986444
85	0x3d84c6f3	0.06483259
86	0xbd38b7a9	-0.045097027
87	0x3dc541e1	0.09631706
88	0x3d0057b3	0.031333636
89	0x3db7e493	0.08979144
90	0x3c2cf82e	0.0105572175
91	0x3cd9d81d	0.026592309
92	0xbd220094	-0.039551333
93	0xbdb9e4e3	-0.0907686
94	0xbe036aef	-0.1283376
95	0xbd183bae	-0.03716629
96	0x3c5d34bf	0.013501345
97	0xbd4b9762	-0.049704917
98	0xbdbe03f9	-0.092781015
99	0xbd78e83b	-0.060768347
100	0x3add53b4	0.0016885907
101	0xbddd734a	-0.10813005
102	0xbd581292	-0.052752085
103	0x3b997e8a	0.004684274
104	0x3d501bf3	0.050807904
105	0x3bde6cf3	0.00678789
106	0xbda671fa	-0.08127208
107	0x3ce1509f	0.027504263
108	0x3cb57767	0.022151662
109	0xbdec6e9a	-0.11544533
110	0x3da5d4df	0.080972426
111	0xbd5d02d7	-0.053957786
112	0xbd3c7b0a	-0.046015777
113	0xbcf2c8a8	-0.029636696
114	0x3d5328b3	0.051552486
115	0x3c29292a	0.010324756
116	0xbdd2b847	-0.10289054
117	0xbdd6aaba	-0.10481782
118	0x3d7c03c4	0.06152703
119	0x3e0480c8	0.12939751
120	0xbcb48622	-0.022036616
121	0xbdb0b8a1	-0.08628965
122	0xbd83e66a	-0.06440432
123	0x3d9c5407	0.076332144
124	0x3d91f469	0.07126696
125	0x3cbb29c0	0.022847056
126	0x3db8c0a3	0.090211175
127	0xbd45abbe	-0.04825949
128	0xbd7a8c57	-0.061168995
129	0x3d1670d9	0.036728714
130	0xbcd3e21b	-0.025864651
131	0x3cf1f4d8	0.029535696
132	0xbd9d6c4d	-0.07686672
133	0xbd37b5bb	-0.044851046
134	0xbdf75427	-0.12076598
135	0xbdd8fbd3	-0.10594907
136	0x3d4b2444	0.049595132
137	0x3d764888	0.060127765
138	0x3da37a05	0.07982258
139	0x3c0b2122	0.008491786
140	0xbd46f8b5	-0.04857703
141	0x3d759a57	0.059961643
142	0x3d8d54f9	0.06900973
143	0x3c44988d	0.011999262
144	0x3d839acd	0.0642601
145	0xbd39c692	-0.045355387
146	0x3ce46128	0.027878359
147	0xbca7950a	-0.02045681
148	0x3d1f788f	0.038933333
149	0xbdd7634a	-0.10516985
150	0x3daa9b82	0.08330442
151	0xbd53cffa	-0.051712014
152	0x3d807a25	0.06273297
153	0xbdd2206c	-0.1026009
154	0xbdcd0b27	-0.10011893
155	0xbdcf268f	-0.10114776
156	0xbddf0fe0	-0.108917
157	0xbbd5ad58	-0.0065209083
158	0x3d54f055	0.05198701
159	0xbdbdfe0b	-0.092769705
160	0xbd8e9970	-0.0696286
161	0xbc05b257	-0.008160195
162	0xbd31fb27	-0.04345241
163	0xbd03feab	-0.032225292
164	0x3dcda654	0.1004149
165	0x3de4b971	0.11168183
166	0xbcd04ae4	-0.025426336
167	0xbcf2651c	-0.029589228
168	0x3d3b5c93	0.045742583
169	0x3d304411	0.043033663
170	0x3c919ea3	0.01777584
171	0x3da02b94	0.07820812
172	0x3e1c28d8	0.15249956
173	0xbd039a8e	-0.032129817
174	0xbb6840eb	-0.0035439085
175	0xbc887956	-0.01665942
176	0x3d9d9414	0.07694259
177	0xbc89c4eb	-0.01681753
178	0x3d9fca26	0.07802229
179	0x3df21276	0.118199274
180	0xbdaa06de	-0.08302091
181	0x3d0fe43f	0.03512978
182	0xbba193ed	-0.004930964
183	0xbde33c28	-0.11095458
184	0xbc763705	-0.015027766
185	0x3cd44d04	0.02591563
186	0xbe1e1606	-0.15438089
187	0xbd01312b	-0.03154103
188	0xbc232e1d	-0.009959725
189	0x3d8ffa52	0.07030167
190	0x3d87bee8	0.06628209
191	0xbd7da2bd	-0.061922777
192	0xbd6b2ff1	-0.057418767
193	0xbdbaa72c	-0.09113917
194	0x3e16fcba	0.14744845
195	0x3d8286a0	0.06373334
196	0x3dc8d38a	0.09805973
197	0x3db94948	0.090471804
198	0x3de072e2	0.10959412
199	0xbcb13338	-0.021630868
200	0x3d375cc0	0.044766188
201	0x3d1e4de7	0.038648512
202	0xbdcf5c10	-0.101249814
203	0xbd26336d	-0.040576387
204	0x3bcad026	0.006189364
205	0xbd9a2270	-0.075261
206	0xbd55816b	-0.052125376
207	0x3d25aa38	0.040445536
208	0xbcd9ac2c	-0.026571356
209	0x3a5d0a2f	0.00084319984
210	0xbd46415f	-0.048402186
211	0x3d9fe387	0.07807069
212	0x3d3048fd	0.043038357
213	0x3b3ef779	0.0029139204
214	0xbc5970d1	-0.013271526
215	0x3c8fe9c8	0.01756753
216	0xbde31f61	-0.110899694
217	0xbda4375f	-0.08018374
218	0x3d64f7a2	0.055900224
219	0xbc96c54a	-0.018404622
220	0xbd318f46	-0.043349527
221	0x3d778402	0.060428627
222	0xbd025f31	-0.031829063
223	0x3de6b47c	0.112648934
224	0x3e00d053	0.1257947
225	0x3dbabe19	0.091182895
226	0xbb37fb6c	-0.0028073443
227	0x3d13dca7	0.036099102
228	0xbce4ed13	-0.027945077
229	0xbd2a65da	-0.04160104
230	0xbe0bd3b6	-0.1365498
231	0xbdaf07dd	-0.08546422
232	0x3d568d75	0.052380998
233	0x3d2c87e8	0.042121798
234	0xbd75e12a	-0.060029186
235	0x3d8eb14a	0.06967409
236	0x3dbde5ba	0.092723325
237	0x3bf2ddfd	0.007411717
238	0xbd932498	-0.07184714
239	0xbd3fa4af	-0.046787914
240	0xbbf9e204	-0.00762582
241	0x3d6af31a	0.057360746
242	0xbd903b19	-0.07042522
243	0x3db13b25	0.08653859
244	0xbdba6175	-0.0910062
245	0x3d03beb4	0.03216429
246	0x3cdad6f7	0.026713831
247	0xbc75c88e	-0.015001429
248	0xbd6ba299	-0.057528112
249	0x3d9e3073	0.07724085
250	0x3d264b56	0.04059919
251	0x3d3dc919	0.04633436
252	0x3d4a5834	0.049400523
253	0x3d811dc1	0.06304503
254	0x3db30341	0.08740855
255	0x3b30cdaa	0.0026978054

rnn.weight_hh_l0 f4 [64, 64]
0	0xbd813dcc	-0.06310615
1	0x3da222aa	0.07916768
2	0x3debf096	0.115204975
3	0xbd370a20	-0.04468739
4	0x3d58d861	0.05294073
5	0xbda0ca5e	-0.078510985
6	0x3debe3ef	0.11518084
7	0x3dd5c670	0.104382396
8	0xbe077a1a	-0.13230172
9	0xbd2ef9fe	-0.04271888
10	0xbd84ac40	-0.064781666
11	0x3d47107e	0.048599713
12	0xbd17a8e9	-0.03702632
13	0xbc2a5494	-0.010396142
14	0x3df3befe	0.11901663
15	0xbc8ef6af	-0.017451612
16	0x3e0c37c1	0.13693143
17	0x3dca1ef4	0.09869185
18	0x3df87319	0.12131328
19	0xbd861860	-0.06547618
20	0x3d1fc16c	0.03900282
21	0xbdbd57be	-0.09245251
22	0xbc0a29fe	-0.008432863
23	0xbc835d23	-0.016035622
24	0xbd99f0b4	-0.075166136
25	0xbd9743b4	-0.0738596
26	0xbdd8f489	-0.105935164
27	0xbb8be2d2	-0.0042689824
28	0xbd1d5b46	-0.038417123
29	0x3e066a3d	0.13126464
30	0xbda42a58	-0.08015889
31	0x3db61769	0.08891184
32	0xbd7dea46	-0.061991
33	0x3d81b224	0.06332806
34	0xbde45e33	-0.111507796
35	0xbb8922dc	-0.0041850638
36	0x3d7b28fc	0.061318383
37	0x3ddf1cdb	0.108941756
38	0x3e120b87	0.1426221
39	0xbcfa2d91	-0.030539306
40	0xbd258bd9	-0.040416572
41	0xbd147aa3	-0.036249768
42	0xbd49e0f3	-0.049286794
43	0x3cfa7b15	0.030576268
44	0xbd53bbb9	-0.0516927
45	0xbdbc7447	-0.09201866
46	0xbd2bb181	-0.041917328
47	0x3d870b6f	0.06593978
48	0x3de605e9	0.11231596
49	0xbdc2333d	-0.09482429
50	0xbd5f350c	-0.05449395
51	0xbcc2998b	-0.023754856
52	0xbcfac5a4	-0.03061182
53	0xbc8723d5	-0.016496578
54	0x3c8921ed	0.01673981
55	0xbde8da0a	-0.11369713
56	0x3d2a877e	0.04163312
57	0x3da14373	0.07874193
58	0x3d6b60b2	0.057465263
59	0x3d89f1cd	0.06735573
60	0xbc8bae60	-0.017050922
61	0xbde5c3bc	-0.11218974
62	0x3bdddeae	0.0067709303
63	0xbde57b42	-0.1120515
64	0xbc73b588	-0.014874823
65	0x3d8a3956	0.06749217
66	0x3cabb6cb	0.020961186
67	0xbc9545a4	-0.018221684
68	0xbdfa0d7c	-0.12209603
69	0x3cec2f12	0.028831039
70	0x3c411a2c	0.011786025
71	0xbcae0190	-0.02124098
72	0xbdacbda4	-0.084346086
73	0x3ca3fbac	0.020017467
74	0xbdc2a4f5	-0.09504119
75	0x3df1d54f	0.118082635
76	0xbda855a8	-0.08219463
77	0x3d9e123e	0.07718323
78	0x3dda3c4a	0.106560305
79	0xbd8017ee	-0.06254564
80	0xbcc1ddda	-0.023665357
81	0xbde09899	-0.10966606
82	0xbc232f4f	-0.00996001
83	0x3dc205e3	0.09473779
84	0x3da6f43d	0.081520535
85	0xbd52f5f1	-0.05150408
86	0xbd54433a	-0.051821925
87	0xbdd72810	-0.10505688
88	0x3d2ee37d	0.04269742
89	0x3d873cde	0.06603406
90	0x3bf62940	0.0075122416
91	0xbd98909d	-0.07449458
92	0x3d8909bf	0.06691312
93	0xbd58b221	-0.052904252
94	0xbd82e6b0	-0.063916564
95	0x3dd37680	0.103253365
96	0xbd50e785	-0.051002044
97	0x3de16366	0.11005287
98	0xbcd06f79	-0.02544378
99	0x3da0386b	0.07823261
100	0xbdc98a1e	-0.09840797
101	0xbd2c6d06	-0.04209616
102	0x3d8942cc	0.067021936
103	0xbb901fc8	-0.00439832
104	0x3d0ceeb9	0.03440735
105	0xbd849b9b	-0.06474992
106	0x3dd34460	0.10315776
107	0x3d062fe1	0.032760505
108	0x3d9966dc	0.07490322
109	0xbd919576	-0.071085855
110	0x3c7cfe79	0.01544153
111	0xbdc378be	-0.09544514
112	0x3d9bfd54	0.07616678
113	0x3da10017	0.07861345
114	0xbdba0fa4	-0.090850145
115	0x3b13ff62	0.002258264
116	0xbdc99fab	-0.098449074
117	0x3d8db041	0.069183834
118	0xbd3d5c9f	-0.04623091
119	0xbd93350d	-0.07187853
120	0x376e4c40	1.4203659e-05
121	0x3d95eba2	0.07320334
122	0xbdcfd6f4	-0.10148421
123	0x3d59f964	0.053216353
124	0xbd8e6570	-0.069529414
125	0x3caa56e6	0.02079339
126	0x3d3d64ce	0.046238713
127	0x3cd01fbb	0.025405755
128	0xbd57a766	-0.052649878
129	0x3d6ca3b2	0.0577733
130	0x3d8759da	0.06608935
131	0x3d82f005	0.06393436
132	0xbdc0a01f	-0.09405541
133	0xbdfa5ef4	-0.12225142
134	0x3a9e37b7	0.0012071048
135	0xbd90452c	-0.070444435
136	0x3d1d083b	0.038337927
137	0xbdff947d	-0.12479494
138	0xbdec96d7	-0.11552208
139	0xbd29aa15	-0.04142197
140	0x3c1b74f7	0.009488336
141	0xbd2b8b1d	-0.041880716
142	0x3df68373	0.12036791
143	0x3db9d70d	0.09074221
144	0xbd443329	-0.047900353
145	0xbd8cf677	-0.06882947
146	0xba872049	-0.0010309304
147	0xbd1bbbf8	-0.038021058
148	0x3dd4b910	0.1038686
149	0x3d328f27	0.043593552
150	0xbc9a52c9	-0.018838303
151	0x3c5b0fee	0.013370497
152	0x3dec3932	0.11534347
153	0x3e0f4c12	0.13993862
154	0x3c282192	0.01026191
155	0xbd936b3a	-0.07198186
156	0xbdf926e9	-0.12165625
157	0x3ddb2109	0.1069966
158	0xbc00599e	-0.007833866
159	0x3d020650	0.0317443
160	0x3d729bf0	0.059230745
161	0x3e0f4103	0.13989644
162	0x3c9fba7f	0.019498108
163	0xbd235a38	-0.03988096
164	0x3deaf4c8	0.114724696
165	0x3d718a87	0.05897
166	0x3ddcd381	0.10782529
167	0xbdb20176	-0.08691685
168	0x3db296ca	0.08720167
169	0x3c238e72	0.009982692
170	0x3ca0456a	0.01956435
171	0xbc83843e	-0.016054269
172	0xbd856c20	-0.06514764
173	0x3da34140	0.0797143
174	0x3b99f102	0.00469792
175	0x3dcdea56	0.10054462
176	0xbd5b0089	-0.053467307
177	0xbd3d1764	-0.046164885
178	0xbdf65a09	-0.120288916
179	0xbcf53155	-0.02993075
180	0xbc8c52f4	-0.017129399
181	0x3cf89877	0.030346138
182	0x3dd94654	0.10609117
183	0xbd530451	-0.05151779
184	0xbcba48eb	-0.022739848
185	0xbd5cf0c8	-0.053940564
186	0xbdda0799	-0.106459804
187	0xbddb9ccd	-0.10723267
188	0x3da60fac	0.08108458
189	0x3d876101	0.06610299
190	0x3d576cc0	0.052593946
191	0xbdc3178d	-0.09525976
192	0x3d50211a	0.050812818
193	0xbd1eaaf1	-0.03873724
194	0xbdc30175	-0.09521762
195	0xbd7f20e2	-0.06228722
196	0xbd2786ca	-0.04090003
197	0x3d56a056	0.052399002
198	0xbd4847a1	-0.048896436
199	0x3da5c27f	0.08093738
200	0x3d06f33d	0.032946814
201	0x3d03f6ed	0.03221791
202	0x3d62d814	0.05538185
203	0xbdc7714b	-0.09738406
204	0x3d5303f1	0.05151743
205	0x3d23e623	0.040014397
206	0xbdcf2850	-0.10115111
207	0x3dd9dace	0.10637437
208	0xbdf54856	-0.119766876
209	0xbd7b10b8	-0.06129524
210	0x3da19075	0.07888881
211	0xbd88aa7c	-0.06673142
212	0x3c1ed777	0.0096949255
213	0x3dcfbd29	0.10143501
214	0x3daa5d34	0.08318558
215	0xbce08d7b	-0.027411213
216	0x3da4fabd	0.08055637
217	0xbd87a00c	-0.066223234
218	0x3d115388	0.035480052
219	0x3e125bb0	0.14292789
220	0x3e0b9bb6	0.13633618
221	0x3d535ed7	0.05160412
222	0x3dd4edc8	0.10396916
223	0x3dd2251a	0.10260983
224	0xbcd807c4	-0.02637089
225	0x3d501b72	0.050807424
226	0xbdb29374	-0.08719531
227	0xbe06e43a	-0.13172999
228	0x3db11e94	0.086484104
229	0xbc98467b	-0.018588295
230	0x3de60439	0.11231274
231	0xbba70d8d	-0.005098051
232	0xbe12667a	-0.14296904
233	0x3d78ae5c	0.060713157
234	0xbca68fc4	-0.020332225
235	0xbdc275f2	-0.094951525
236	0x3dbce2c7	0.09222942
237	0xbcc4bdb4	-0.024016239
238	0xbd9b734f	-0.07590353
239	0x3d7c7b47	0.061641004
240	0xbdd94c9d	-0.10610316
241	0xbe048dc9	-0.12944712
242	0x3d7598c4	0.05996014
243	0x3d2b1619	0.04176912
244	0xbd88bfb0	-0.066771865
245	0xbde36db5	-0.11104909
246	0xbdc0cc87	-0.094140105
247	0x3dd3f5db	0.103496276
248	0x3dc98f55	0.098417915
249	0xbd34f1ee	-0.044176035
250	0xbdfc3801	-0.123153694
251	0x3d87b12f	0.06625592
252	0xbd5bc954	-0.0536588
253	0xbd967aab	-0.07347616
254	0x3d37dedc	0.04489027
255	0xbd3ebdd5	-0.046567757

rnn.bias_ih_l0 f4 [64]
0	0x3dc3af9f	0.095549814
1	0x3c8b34f2	0.01699302
2	0x3b538189	0.0032273254
3	0xbd7370a1	-0.059433583
4	0xbd8ce7aa	-0.06880124
5	0xbe0ee89d	-0.13955922
6	0xbdc68013	-0.09692397
7	0xbe077371	-0.13227631
8	0xbdd910c1	-0.10598899
9	0x3dce06d6	0.100598976
10	0x390060a8	0.00012243039
11	0x3d66abf3	0.056316327
12	0x3cb24d2f	0.02176532
13	0xbd2fefed	-0.04295342
14	0xbd8929c9	-0.06697423
15	0x3d0ccae3	0.034373175
16	0x3dc61ba8	0.09673244
17	0xbdd70c00	-0.10500336
18	0xbd53db17	-0.051722612
19	0x3cdad367	0.026712133
20	0xbd4af931	-0.049554054
21	0xbd7e3e50	-0.062071145
22	0xbd20509b	-0.03913937
23	0xbdc0445a	-0.09388037
24	0x3cdea6b2	0.027179096
25	0xbd97156d	-0.073771335
26	0xbc74d72e	-0.014943881
27	0xbdc542a6	-0.09631853
28	0x3a82f6e6	0.0009991794
29	0xbdc72f1b	-0.097257815
30	0x3c799782	0.015233876
31	0xbcd62df9	-0.026144968
32	0xbd8abff9	-0.06774897
33	0x3df83a87	0.12120538
34	0xbd6c21bd	-0.057649363
35	0xbd28eceb	-0.041241568
36	0xbd14c86c	-0.03632395
37	0xbd2edd09	-0.042691264
38	0x3c34fe2e	0.011046929
39	0xbc919b8e	-0.01777437
40	0xbcc67712	-0.024226699
41	0x3de790fa	0.11306949
42	0x3d4d4ab1	0.05012006
43	0xbc70ab75	-0.014689316
44	0xbdc72825	-0.09724454
45	0xbdebee20	-0.11520028
46	0x3dcd05eb	0.100108944
47	0xbde348bc	-0.11097857
48	0xbd1b1ed8	-0.03787121
49	0x3da5b772	0.0809163
50	0x3dc3383d	0.09532211
51	0x3cbf4235	0.023347
52	0xbb8b455a	-0.0042502107
53	0xbde40961	-0.111346014
54	0x3dbff271	0.09372414
55	0xbbdc1725	-0.006716626
56	0x3bad30cd	0.0052853585
57	0x3da6e7e0	0.081496954
58	0xbd658763	-0.056037318
59	0x3d8193c7	0.063270144
60	0xbd8603e2	-0.06543709
61	0xbcc35f50	-0.02384916
62	0x3daa3617	0.08311098
63	0xbdef09c8	-0.116717875

rnn.bias_hh_l0 f4 [64]
0	0x3e0124f2	0.1261175
1	0x3dce355e	0.10068773
2	0xbb83819f	-0.004013255
3	0x3d2e1afd	0.042506207
4	0xbc7797ae	-0.015111847
5	0xbc8151b3	-0.015786028
6	0xbd988ff1	-0.0744933
7	0x3da31a65	0.07964019
8	0xbc90d522	-0.017679755
9	0x3c946e7c	0.01811909
10	0x3d6f4409	0.058414493
11	0x3dd507ea	0.104019
12	0x3de3d28c	0.11124143
13	0xbdb8a921	-0.09016634
14	0xbc38c933	-0.011278438
15	0x3d5ac65f	0.053411838
16	0x3d8cb1a0	0.06869817
17	0x3d6f38bd	0.05840372
18	0xbdb21d72	-0.086970225
19	0x3d0e7360	0.034778
20	0x3dcedbf4	0.101005465
21	0xbde501ce	-0.11181985
22	0xbd931224	-0.071811944
23	0xbddeadb0	-0.10872972
24	0xbdc1b434	-0.09458199
25	0x3da6053d	0.08106468
26	0xbba917cc	-0.0051603075
27	0xbe03c991	-0.1286986
28	0x3dbbed40	0.09176111
29	0x3dcc3de2	0.09972741
30	0xbd1767e7	-0.036964323
31	0x3df0f903	0.11766245
32	0x3897f0fc	7.245128e-05
33	0xbd50d4fd	-0.05098437
34	0xbd1dc5cc	-0.038518712
35	0x3dcb8fa6	0.09939508
36	0x3dfe3fca	0.124145105
37	0xbc8ffdb8	-0.017577037
38	0x3db229b6	0.08699362
39	0x3d9b6fe9	0.075897045
40	0x3a52fc9e	0.0008048507
41	0xbdd9c39c	-0.10633013
42	0xbcaebea3	-0.021331137
43	0x3dd2ee07	0.10299306
44	0xbb555d8b	-0.0032556977
45	0x3d3a0f7e	0.04542493
46	0xbdf4df69	-0.119566746
47	0x3cd2cad6	0.025731485
48	0xbdb9b29e	-0.09067272
49	0x3d826732	0.06367339
50	0xbdb99a55	-0.090626396
51	0xbdb686a6	-0.08912401
52	0x3dcd02a6	0.10010271
53	0x3d895e53	0.06707444
54	0xbe0374ff	-0.12837599
55	0xbd9951ce	-0.07486306
56	0x3d35eb6e	0.044413976
57	0x3dac6a30	0.08418691
58	0xbcffce77	-0.03122638
59	0xbd72ab39	-0.059245322
60	0xbd3292e6	-0.043597125
61	0xbdf1df64	-0.118101865
62	0x3d44a4b5	0.04800864
63	0xbd8d65c3	-0.06904175

rnn.weight_ih_l1 f4 [64, 64]
0	0x3d445766	0.047934912
1	0xbdbbc72a	-0.09168847
2	0xbc70d950	-0.014700249
3	0xbd391793	-0.045188498
4	0xbd7c1c58	-0.06155047
5	0xbdb80511	-0.08985341
6	0xbdce8b95	-0.10085217
7	0x3ddab347	0.10678726
8	0x3d864ee9	0.0655802
9	0xbd857de2	-0.06518151
10	0xbd24c195	-0.040223677
11	0x3d0b55c9	0.034017358
12	0x3d818713	0.063245915
13	0xbde229b9	-0.11043114
14	0x3dd2e080	0.10296726
15	0x3d0e5702	0.034750946
16	0x3c88bd9d	0.016691977
17	0x3d2c152f	0.04201239
18	0x3de0a1bb	0.10968348
19	0xbdcd4f8b	-0.10024937
20	0x3d432d69	0.04765073
21	0xbd92c1ca	-0.071658686
22	0x3d4620db	0.048371177
23	0xbe14b26f	-0.14521192
24	0xbc9fd92c	-0.019512735
25	0xbad580e7	-0.0016289026
26	0xbbee7d13	-0.0072780936
27	0xbd91cc4b	-0.07119044
28	0xbe07ea44	-0.13272959
29	0xbdb7d60a	-0.089763716
30	0xbd46f040	-0.048568964
31	0x3deee0dd	0.11663983
32	0xbd0d6194	-0.034516886
33	0xbcc5c8aa	-0.024143536
34	0xbd228b92	-0.039683886
35	0xbd93153f	-0.07181787
36	0x3ca2d744	0.019878037
37	0x3d82254a	0.063547686
38	0x3cde0774	0.027103163
39	0xbc6aa720	-0.014322072
40	0x3e250860	0.16116476
41	0x3d8a83ba	0.06763406
42	0x3d192c53	0.037395786
43	0x3dc89c22	0.09795405
44	0xbd4f4a93	-0.05060823
45	0x3d187077	0.03721663
46	0xbca2a124	-0.019852228
47	0x3d2ff0f9	0.04295442
48	0xbd6fe489	-0.058567557
49	0xbd3d4f05	-0.046217937
50	0xbd01e436	-0.03171178
51	0x3ce3367b	0.02773594
52	0xbd614e38	-0.055006236
53	0xbcaccc81	-0.021093609
54	0xbdc6d0c4	-0.09707788
55	0xbd0f0df2	-0.03492541
56	0x3dbcd940	0.09221125
57	0x3e14f847	0.14547835
58	0xbd74f4d2	-0.05980379
59	0xbe1b4a4c	-0.15165061
60	0xbd71f209	-0.059068713
61	0x3de58ad1	0.11208118
62	0x3cb95d28	0.022627428
63	0xbda2eb5f	-0.0795505
64	0x3cd9b361	0.026574792
65	0x3e080cb7	0.132861
66	0xbdb5750f	-0.08860218
67	0xbddb4d1b	-0.10708066
68	0x3c6d6c97	0.014491222
69	0x3da09225	0.07840375
70	0xbdb9ed41	-0.09078456
71	0xbdc76dea	-0.09737761
72	0xbdaee6d7	-0.08540123
73	0x3dfe4f28	0.124174416
74	0xbd8dfda2	-0.06933142
75	0xbd683e2a	-0.05669991
76	0xbd3b5866	-0.0457386
77	0x3dbd121f	0.09231972
78	0x3d51e34e	0.051242165
79	0x3d9c54ab	0.07633337
80	0xbd249922	-0.0401851
81	0xbe073193	-0.13202505
82	0xbd6951c6	-0.05696275
83	0xbd5b59a5	-0.05355229
84	0x3d8efb37	0.06981509
85	0x3cfac0b0	0.030609459
86	0xbd2671f4	-0.040636018
87	0xbcbd2da0	-0.023093045
88	0xbcb7a76f	-0.022418706
89	0x3afa3d51	0.001909176
90	0x3e1f086a	0.15530553
91	0xbdc8b2c9	-0.097997256
92	0x3e09794c	0.13425177
93	0x3d60e0a6	0.05490174
94	0x3db18fea	0.086700276
95	0xbd548219	-0.051881883
96	0xbe075cb8	-0.13218963
97	0x3ce60836	0.028080087
98	0x3de42c83	0.111413024
99	0x3d071920	0.032982945
100	0xbd67feae	-0.056639366
101	0x3d372dce	0.044721417
102	0xbc04e202	-0.008110525
103	0xbd2562c6	-0.0403774
104	0xbe05768f	-0.13033508
105	0xbda7f357	-0.0820071
106	0xbdb64380	-0.08899593
107	0x3d105d0a	0.03524498
108	0x3dd0cb0b	0.101949774
109	0xbdbe0f43	-0.09280255
110	0x3e006a6e	0.125406
111	0xbba19a7d	-0.0049317465
112	0x3d8ab6d3	0.06773152
113	0x3c90ee4d	0.017691756
114	0x3d53d879	0.051720116
115	0xbda4c4f4	-0.08045378
116	0x3d6506ee	0.05591481
117	0xb958615e	-0.00020635637
118	0xbdb5ccc3	-0.08876946
119	0x3e11dace	0.14243624
120	0xbd2c85eb	-0.0421199
121	0xbd9aed90	-0.07564843
122	0x3d08396a	0.03325788
123	0x3da193fc	0.07889554
124	0x3d76c1ac	0.060243294
125	0xbe0ca743	-0.1373568
126	0xbcd28546	-0.025698315
127	0xbd30035a	-0.042971946
128	0xbdc09c97	-0.09404867
129	0xbdb4c4eb	-0.088266216
130	0xba038c6c	-0.0005018178
131	0x3b07f01e	0.0020742486
132	0x3cc39293	0.023873603
133	0x3dcfb795	0.10142437
134	0xbdc08375	-0.094000734
135	0x3e189a10	0.1490252
136	0xbd3df6b7	-0.046377864
137	0x3d8fa627	0.07014113
138	0x3d205254	0.039141014
139	0x3d0b8c6d	0.034069467
140	0xbd972926	-0.07380895
141	0x3c68add4	0.0142016
142	0xbdce7343	-0.10080578
143	0xbc1a7fc6	-0.009429878
144	0xbe0050d2	-0.1253083
145	0xbda0045b	-0.07813331
146	0xbdae9980	-0.085253716
147	0x3d2db7b4	0.04241152
148	0xbda9dc2d	-0.08293948
149	0xbdbb57a7	-0.09147578
150	0xbd04a760	-0.032386184
151	0x3dca5551	0.09879554
152	0x3d988396	0.07446973
153	0xbd6cb6ce	-0.057791524
154	0x3d804fe7	0.0626524
155	0x3de3a6c8	0.111157954
156	0xbdd33e70	-0.103146434
157	0xbd413be7	-0.047176268
158	0x3ce42907	0.027851595
159	0xbc7b945f	-0.015355199
160	0x3da65654	0.081219345
161	0xbd642af3	-0.055705022
162	0xbdb2a8e4	-0.087236196
163	0x3db41971	0.08793915
164	0xbd0a0e0c	-0.033704802
165	0xbcb9931b	-0.022653153
166	0x3c86da20	0.016461432
167	0xbdc1eb5d	-0.0946872
168	0x3d15daf0	0.03658575
169	0x3d3f9601	0.046773914
170	0xbd65d684	-0.05611278
171	0xbd4b1c32	-0.049587436
172	0xbdb6f38e	-0.08933173
173	0x3bdae16e	0.0066797053
174	0xbc233f13	-0.009963769
175	0x3de152f1	0.11002148
176	0x3dc4e585	0.0961409
177	0x3a79329e	0.0009506139
178	0x3bdace21	0.0066774045
179	0xbe15d11f	-0.14630555
180	0x3db27db4	0.08715382
181	0x3d9675c9	0.073466845
182	0xbc4011c5	-0.011722987
183	0x3caee308	0.021348491
184	0xbcae875f	-0.021304784
185	0x3da1ca38	0.07899898
186	0x3dd13391	0.10214914
187	0xbd98c157	-0.07458752
188	0x3c9d0939	0.019169437
189	0x3db96034	0.090515524
190	0xbe065fc5	-0.1312247
191	0xbd31a02b	-0.04336564
192	0x3d857029	0.065155335
193	0x3d5c022e	0.053713016
194	0xbae3e4c3	-0.0017386902
195	0xbc42e870	-0.011896238
196	0x3d455ec9	0.048186097
197	0xbcd68b73	-0.026189541
198	0xbdf37f59	-0.11889524
199	0x3be99a25	0.007128971
200	0x3df688a7	0.12037783
201	0x3e059bc7	0.13047706
202	0x3c3a9f0a	0.011390457
203	0xbdf333f9	-0.11875147
204	0xbdf8e868	-0.12153703
205	0xbd321b03	-0.04348279
206	0xbdd717c4	-0.1050258
207	0x3c2e6d4a	0.010646174
208	0x3da3787e	0.079819664
209	0xbce35b65	-0.027753541
210	0x3dcfb6a0	0.10142255
211	0xbd846571	-0.06464661
212	0x3df7deec	0.12103066
213	0x3da58286	0.08081536
214	0xbe25f3ca	-0.1620628
215	0x3d99eb05	0.075155295
216	0x3d311c0c	0.04323964
217	0xbe1c9653	-0.15291719
218	0x3ca5874c	0.020206116
219	0x3d6edbcb	0.05831508
220	0xbd049a89	-0.03237394
221	0xbd0cf3c2	-0.034412153
222	0xbd7055c6	-0.05867555
223	0x3c8d0c19	0.017217683
224	0xbdf1f6f3	-0.1181468
225	0xbc05969a	-0.008153582
226	0x3c988f60	0.018623054
227	0x3cfd785a	0.030941177
228	0x3d0332f6	0.032031022
229	0xbb11935d	-0.002221308
230	0xbe114fdd	-0.14190622
231	0xba938035	-0.0011253419
232	0x3d0c8ec6	0.034315847
233	0x3d72d08e	0.059280924
234	0x3e18ce23	0.14922385
235	0xbd85e6e1	-0.06538177
236	0x3e104f9e	0.14092872
237	0xbdb43286	-0.08798699
238	0x3d5d8cc2	0.054089315
239	0xbd2153cf	-0.039386567
240	0x3c9c119e	0.01905137
241	0x3c817ca6	0.015806507
242	0x3de9c1b4	0.11413899
243	0xbc156ba2	-0.0091199
244	0xbda4c67c	-0.080456704
245	0xbc6457ab	-0.013936917
246	0x3daa1b19	0.0830595
247	0xbd8a7555	-0.067606606
248	0x3cd362bd	0.025803918
249	0xbc8514f6	-0.016245347
250	0x3c84ea45	0.01622499
251	0x3d4dabe6	0.050212763
252	0xbdd82886	-0.10554604
253	0xbe0e6af1	-0.13907982
254	0x3e0a2c19	0.13493384
255	0x3d1bd4a6	0.038044594

rnn.weight_hh_l1 f4 [64, 64]
0	0x3d811385	0.06302551
1	0xbdd5c006	-0.10437016
2	0xbd8086e5	-0.06275729
3	0x3ce8e03a	0.028427232
4	0xbe14919c	-0.1450867
5	0xbd347cba	-0.04406426
6	0xbd732a67	-0.05936661
7	0x3c827708	0.0159259
8	0xbdcb6dc6	-0.09933047
9	0xbdf0d7cf	-0.11759912
10	0x3cfe6a87	0.031056656
11	0x3d34e3d2	0.04416258
12	0x3dba132a	0.090856865
13	0xbdb29ec9	-0.08721692
14	0x3cae098c	0.021244787
15	0xbe02d351	-0.12775923
16	0x3e07c723	0.13259558
17	0xbc83e487	-0.016100181
18	0xbdf8d881	-0.1215067
19	0xbd8c287b	-0.068436585
20	0xbd963f31	-0.073362716
21	0x3db60d56	0.088892624
22	0xbd9ebbdd	-0.07750676
23	0x3b6ff516	0.0036614588
24	0xbd591c79	-0.05300567
25	0xbcc19a54	-0.02363316
26	0x3d1ecb07	0.03876784
27	0xbd959214	-0.07303253
28	0xbdc783f2	-0.097419634
29	0x3dc1c09b	0.09460565
30	0x3dc34b10	0.095358014
31	0xbdf31ad1	-0.11870349
32	0x3cbe637e	0.023240801
33	0xbde305b1	-0.1108507
34	0xbd355df1	-0.044279043
35	0xbb8dc8d9	-0.0043269214
36	0xbdc3180f	-0.09526073
37	0xbd9da49e	-0.07697414
38	0x3dc24071	0.094849475
39	0xbd8dab07	-0.069173865
40	0xba95ef45	-0.0011439106
41	0x3daeb91e	0.08531402
42	0xbd14bd3d	-0.036313284
43	0xbdc289bc	-0.09498927
44	0x3df76fda	0.12081881
45	0xbd1a48d1	-0.0376671
46	0x3daee09c	0.085389346
47	0x3cd55f0b	0.026046297
48	0x3d717624	0.05895056
49	0x3e12f45c	0.14351028
50	0x3dd1287e	0.102128014
51	0x3cd57666	0.026057433
52	0xbd62ff9d	-0.055419553
53	0xbd056a70	-0.03257221
54	0xbdb40048	-0.08789116
55	0xbd0358bc	-0.032067046
56	0xbe03c380	-0.12867546
57	0x3dc9be2d	0.09850726
58	0x3c8be1a1	0.017075362
59	0xbd8e8e11	-0.06960691
60	0xbe0d7ab2	-0.13816336
61	0x3c97eff4	0.018547036
62	0x3ddc4f17	0.10757273
63	0x3c21a43d	0.009865818
64	0x3da21175	0.07913486
65	0x3da5cac3	0.08095314
66	0x3d808af6	0.06276505
67	0x3d9bb273	0.07602396
68	0xbb22f51d	-0.0024865337
69	0x3de89362	0.11356236
70	0x3e0a2644	0.1349116
71	0xbd8dab6c	-0.06917462
72	0xbdbf128b	-0.09329709
73	0x3dca2387	0.098700576
74	0xbde1d299	-0.110264964
75	0xbdac3c88	-0.08409983
76	0xbd65c487	-0.056095626
77	0x3da1d08f	0.079011075
78	0x3d813084	0.06308082
79	0xbd8e66ed	-0.06953225
80	0xbc13fab8	-0.009031944
81	0xbd48d381	-0.04902983
82	0x3db721c1	0.08941985
83	0x3dbcf93d	0.09227226
84	0xbdc6c710	-0.09705937
85	0x3cc1f7e4	0.023677774
86	0x3ca93176	0.020653468
87	0x3d61eb58	0.055156082
88	0x3cc489bf	0.023991464
89	0xbdf97d54	-0.121821076
90	0x3d35e4bc	0.04440759
91	0x3d56d259	0.052446697
92	0xbdfffbc6	-0.12499194
93	0x3d224465	0.039616007
94	0xbd5dc23a	-0.054140307
95	0x3d8194f2	0.06327237
96	0x3ce0abf6	0.027425747
97	0x3d56494e	0.052316003
98	0x3dc374e8	0.095437825
99	0x3e17fbc1	0.1484213
100	0xbd96c0d1	-0.073609956
101	0xbd1db0a9	-0.038498554
102	0xbd85690d	-0.065141775
103	0xbd2562ea	-0.040377535
104	0x3d6f56fa	0.058432557
105	0xbcc21309	-0.023690717
106	0xbda650bc	-0.081208676
107	0x3da52848	0.08064324
108	0xbde248e6	-0.110490605
109	0xbdde2054	-0.1084601
110	0xbde5d3b4	-0.1122202
111	0x3d6f7074	0.058456853
112	0x3d0e5d9d	0.034757245
113	0x3d5e7544	0.054311052
114	0xbcc408ef	-0.023930041
115	0xbc0a2ec4	-0.008434001
116	0x3dee6507	0.11640363
117	0x3cad17c5	0.021129498
118	0x3cb4a3f5	0.022050837
119	0xbdfe5503	-0.124185584
120	0x3da97872	0.08274926
121	0x3ce13c95	0.027494708
122	0x3e097cf9	0.1342658
123	0x3d6ca339	0.05777285
124	0x3dc3e0f7	0.09564393
125	0xbd5d7ccd	-0.054074097
126	0x3da2d4a8	0.07950717
127	0x3d8f38d6	0.069932625
128	0xbdc5c9b6	-0.09657614
129	0x3d508ecf	0.050917443
130	0x3da32b88	0.07967287
131	0x3c95dde8	0.01829429
132	0xbdac1b56	-0.084036514
133	0xbb91b46e	-0.0044465577
134	0x3e0eb45e	0.13935992
135	0x3df01f1a	0.11724682
136	0xbbcb29b0	-0.006200038
137	0x3ce87a38	0.028378591
138	0xbdb13e75	-0.08654491
139	0x3cb08446	0.021547448
140	0xbcafa657	-0.021441622
141	0xbd33852d	-0.04382818
142	0xbdbaa5a9	-0.091136284
143	0xbe07a520	-0.13246584
144	0x3dccfbe4	0.10008982
145	0x3c6a3d8b	0.0142969
146	0x3d9b16f3	0.075727366
147	0x3dc549ef	0.09633242
148	0x3d2995f4	0.041402772
149	0xbdc02302	-0.09381677
150	0xbd9766ef	-0.0739268
151	0xbd3df30a	-0.04637436
152	0xbd4e6367	-0.050387766
153	0x3e14b355	0.14521535
154	0xbcab63cd	-0.020921612
155	0x3d50f712	0.051016875
156	0x3d518073	0.05114789
157	0x3de77af9	0.11302752
158	0x3dd0dd0d	0.10198412
159	0xbdf58e9e	-0.11990093
160	0x3d4fc531	0.050725166
161	0xbdb1a0cb	-0.08673247
162	0x3bd73236	0.006567265
163	0xbaca4e8e	-0.0015434788
164	0xbd8b2a02	-0.06795122
165	0xbdde4c57	-0.108544044
166	0xbc3d2c5c	-0.011546221
167	0x3d88fca5	0.06688813
168	0xbd4bda2f	-0.049768623
169	0xbdc80397	-0.0976631
170	0x3c48782c	0.012235682
171	0xbe0420ea	-0.1290318
172	0xbd5cdd53	-0.05392201
173	0x3db2bc75	0.087273516
174	0x3cfddb55	0.030988375
175	0xbd1d3a42	-0.038385637
176	0x3dc6ef16	0.09713571
177	0x3c5f7f40	0.013641179
178	0x3d1874eb	0.037220877
179	0x3cb03d12	0.021513496
180	0x3b37ac87	0.0028026418
181	0x3de45a8c	0.11150083
182	0xbb8a161e	-0.0042140624
183	0xbdf936a1	-0.12168623
184	0xbcfb24da	-0.03065722
185	0x3d7cbc52	0.061703034
186	0xbd925553	-0.071451806
187	0xbc814fd3	-0.015785133
188	0x3d625635	0.055257995
189	0xba8a4a56	-0.0010550718
190	0xbe02b187	-0.12763034
191	0xbdc3b850	-0.09556639
192	0xbdea949a	-0.11454125
193	0x3d873527	0.06601935
194	0x3dcf9fb6	0.10137884
195	0xbcecfe38	-0.028929815
196	0x3d8b4338	0.0679993
197	0xbd3b56f0	-0.045737207
198	0xbd825c91	-0.06365312
199	0xbdfa44a2	-0.12220122
200	0x3dbb889c	0.091569155
201	0xbd141708	-0.036154777
202	0xbd00b16b	-0.0314192
203	0xbbac19e4	-0.00525211
204	0xbdf58708	-0.11988646
205	0xbcdfce2d	-0.027319992
206	0xbd073891	-0.03301293
207	0x3d87220a	0.06598289
208	0x3c5b31b3	0.013378548
209	0xbddaf22e	-0.10690723
210	0x3d8e9ff9	0.06964106
211	0x3cf20351	0.029542597
212	0xbdb552d3	-0.08853688
213	0x3de103dd	0.10987065
214	0x3dc28d77	0.094996385
215	0xbe01788b	-0.1264364
216	0xbde46eee	-0.11153971
217	0x3dae4d57	0.08510845
218	0xbe04f8a7	-0.12985478
219	0xbc6a30c0	-0.0142938495
220	0x3d8a5878	0.06755155
221	0x3dcdc1fc	0.10046765
222	0xba00a2ad	-0.0004907053
223	0xbd3dacae	-0.04630726
224	0x3de8b6c9	0.113629885
225	0x3d7a5ad5	0.06112178
226	0x3da97180	0.082736015
227	0xbbeb9d65	-0.0071903937
228	0x3dcf5b53	0.101248406
229	0x3d92f441	0.07175494
230	0xbd88442a	-0.06653626
231	0xbd4bd171	-0.049760286
232	0xbcdbdd94	-0.026839055
233	0xbd3ec08d	-0.04657035
234	0x3dbe80a5	0.09301881
235	0xbc009e99	-0.007850313
236	0x3da69a21	0.081348665
237	0xbd71487f	-0.05890703
238	0x3d7bddf0	0.061490953
239	0xbd2b18bd	-0.04177164
240	0x3c840f97	0.016120715
241	0xbcb08c52	-0.021551285
242	0x3c91cbd8	0.017797396
243	0x3d8dfa8f	0.06932556
244	0x3dcd91c3	0.100375675
245	0xbdd244ca	-0.10267027
246	0x3d656841	0.056007627
247	0x3cfc8eda	0.030829836
248	0x3db10ef8	0.08645433
249	0xbdb38a66	-0.08766632
250	0x3d79d365	0.060992617
251	0x3d820963	0.063494466
252	0xbd7846bd	-0.060614336
253	0x3e005afa	0.12534705
254	0x3d573f9e	0.052550904
255	0x3c07d35c	0.008290138

rnn.bias_ih_l1 f4 [64]
0	0xbc7dcbb0	-0.015490457
1	0xbdc28fba	-0.0950007
2	0xbd6bb919	-0.05754957
3	0x3d83746f	0.06418692
4	0xbd86fff4	-0.06591788
5	0x3d8db492	0.06919207
6	0xbd842d1c	-0.064539164
7	0x3d450074	0.048096135
8	0x3df9055c	0.12159225
9	0xbdac3c86	-0.084099814
10	0x3cae9b98	0.021314427
11	0x3da669ca	0.081256464
12	0xbde73163	-0.11288717
13	0x3e0221b9	0.12708177
14	0xbd3af35f	-0.045642253
15	0xbcd5406a	-0.026031692
16	0xbd9a2a86	-0.07527642
17	0x3d8cde89	0.06878383
18	0x3dbd26bc	0.092359036
19	0xbde88d03	-0.11355021
20	0x3d8ff2f4	0.070287615
21	0xbd6a491d	-0.057198633
22	0x3dd1f6e8	0.10252172
23	0x3dcf3408	0.10117346
24	0xbdee7332	-0.116430655
25	0x3c75df3e	0.015006838
26	0xbda50b5f	-0.080588095
27	0xbd84690d	-0.06465349
28	0x3d88e7e5	0.06684855
29	0x3cf1277d	0.029437775
30	0xbd341155	-0.04396184
31	0xbdc424b7	-0.09577315
32	0xbd80d9f4	-0.06291571
33	0x39e0f13b	0.0004290434
34	0xbd8cc62b	-0.06873735
35	0xbd949654	-0.07255235
36	0xbda6b05f	-0.08139109
37	0x3d0c6322	0.034274228
38	0xbdcd178d	-0.100142576
39	0xbc99b3a5	-0.018762419
40	0x3d0e1255	0.03468545
41	0xbd98af08	-0.074552596
42	0xbd689a5e	-0.05678784
43	0x3de2e846	0.11079459
44	0xbbd43108	-0.0064755715
45	0xbd24e009	-0.04025272
46	0xbae30b5a	-0.0017322109
47	0x3d8d0adc	0.06886837
48	0x3dea544d	0.1144186
49	0x3dc76f00	0.097379684
50	0x3de7ef31	0.11324919
51	0x3c18c40c	0.009324085
52	0x3dc7da10	0.09758389
53	0x3c835758	0.01603286
54	0x3d83db99	0.06438369
55	0x3db16838	0.08662456
56	0xbe04d884	-0.12973219
57	0x3e0495c9	0.12947764
58	0xbd58f26c	-0.052965567
59	0xbd80b4ad	-0.06284461
60	0xbdbc4da4	-0.09194496
61	0x3be2656c	0.006909063
62	0xbe0c58e4	-0.13705784
63	0xbd2e64c4	-0.042576566

rnn.bias_hh_l1 f4 [64]
0	0xbb201a6a	-0.0024429807
1	0x3df2cc69	0.118553944
2	0x3daf8a75	0.085713305
3	0x3d88deb3	0.066831015
4	0x3dcd5d6e	0.10027586
5	0xbc8219de	-0.015881475
6	0x3d7727fd	0.06034087
7	0xbc576481	-0.013146521
8	0x3d7d6d92	0.061872073
9	0xbd86a7d0	-0.065749764
10	0xbdb77786	-0.08958344
11	0x3b962a83	0.0045827045
12	0xbd934821	-0.07191492
13	0x3dff1dc6	0.12456851
14	0x3dd6ec23	0.10494258
15	0x3d8a561c	0.06754705
16	0x3dc17e68	0.09447938
17	0x3d9527eb	0.072830044
18	0x3d05a474	0.032627538
19	0x3d208b30	0.03919524
20	0xbdafcdcc	-0.085841745
21	0x3dfaf8ab	0.12254461
22	0xbda9c52b	-0.0828956
23	0xbc1fd327	-0.0097549325
24	0x3de2138c	0.110388845
25	0x3d896d0b	0.067102514
26	0xbd08efe7	-0.033431914
27	0xbd9004c7	-0.07032161
28	0xbdfba7a7	-0.122878365
29	0xbd467db1	-0.048459712
30	0x3d82f55a	0.06394453
31	0x3b9fb437	0.004873778
32	0x3c81942f	0.01581773
33	0xbde8d9c3	-0.1136966
34	0x3d184b97	0.037181463
35	0xbd8774c5	-0.06614069
36	0xbd9d87f9	-0.0769195
37	0xbd0fb249	-0.035082135
38	0xbbd9d723	-0.0066479607
39	0xbd37a547	-0.044835355
40	0x3d63b210	0.055589736
41	0x3ddbf52d	0.10740123
42	0xbdc17898	-0.094468296
43	0xbd5c4b70	-0.05378288
44	0x3db94973	0.090472125
45	0xbdd51e18	-0.104061306
46	0xbb5b86dc	-0.003349713
47	0xbd5ef828	-0.05443588
48	0xbd103610	-0.035207808
49	0xbd0d4912	-0.034493513
50	0x3df05615	0.11735169
51	0x3dc447ec	0.095840305
52	0xbd55556f	-0.05208343
53	0xbdc906a8	-0.09815723
54	0xbdd2d971	-0.1029538
55	0xbc070ddf	-0.008243053
56	0x3d9f0d0e	0.07766162
57	0xbde5f841	-0.11228991
58	0xbdbcbd86	-0.09215836
59	0xbd1c33a9	-0.038135204
60	0xbd6fd692	-0.05855424
61	0xbbcc2a7d	-0.006230651
62	0x3daf2964	0.085528165
63	0x3d74a048	0.05972317

fc.weight f4 [5, 64]
0	0x3c670584	0.014100436
1	0x3cb457f5	0.022014597
2	0x3e128aa5	0.14310701
3	0x3d5a34eb	0.053273123
4	0xbda7d9f5	-0.08195869
5	0xbd50f918	-0.051018804
6	0x3e1eea77	0.15519129
7	0x3ba0060c	0.0048835333
8	0xbe0f3b27	-0.13987409
9	0xbe147b9a	-0.14500275
10	0x3d9a5d4d	0.07537327
11	0x3d1321b4	0.035920814
12	0xbde195c1	-0.110148914
13	0xbd3332ea	-0.043749727
14	0xbb3b5ee5	-0.0028590497
15	0xbdcff160	-0.101534605
16	0x3e052723	0.1300321
17	0x3dc8b0c0	0.097993374
18	0x3d26995c	0.0406736
19	0xbd9a9364	-0.07547644
20	0x3dd194c0	0.1023345
21	0xbba4e618	-0.005032312
22	0x3cb1a403	0.021684652
23	0xbe054233	-0.13013534
24	0x3d3fc8f1	0.046822492
25	0x3d595c3a	0.05306647
26	0x3d5f7e23	0.054563653
27	0x3cc8b31f	0.024499474
28	0xbb20321c	-0.002444393
29	0x3e211e8a	0.15734306
30	0xbdbf021a	-0.09326573
31	0x3db083ad	0.08618865
32	0x3d5a19b5	0.053247172
33	0x3dce7941	0.10081721
34	0x3c0cd567	0.008595801
35	0x3d18d9b5	0.037316997
36	0x3da87965	0.08226279
37	0x3d99c002	0.07507326
38	0xbe0f169b	-0.13973467
39	0xbe03657b	-0.1283168
40	0x3e1a3158	0.15057886
41	0xbe1a3a7f	-0.15061377
42	0x3d963f81	0.07336331
43	0x3dfb85cc	0.12281379
44	0xbd179155	-0.037003834
45	0xbe28522f	-0.164376
46	0xbd1e0b19	-0.038584802
47	0xbe35914e	-0.1773121
48	0x3e0315bd	0.12801261
49	0x3d97e85c	0.07417366
50	0xbd187b06	-0.0372267
51	0xbe2261f3	-0.15857677
52	0x3e076dd5	0.13225491
53	0xbd0389db	-0.03211389
54	0x3e170f04	0.14751822
55	0xbdd598e0	-0.10429549
56	0x3cce9b2e	0.02522048
57	0x3e1e8fcd	0.15484543
58	0xbdfca194	-0.12335506
59	0x3d4a4053	0.04937775
60	0xbe0e17e3	-0.138763
61	0xbdda2f00	-0.10653496
62	0x3b3a7642	0.0028451835
63	0xbe068f97	-0.13140713
64	0x3d45d979	0.0483031
65	0xbe39a6c5	-0.18130024
66	0x3dbf5cdf	0.09343886
67	0xbd2a3753	-0.041556668
68	0x3c7e19ab	0.015509049
69	0x3db78872	0.08961572
70	0x3e2bdb90	0.16782975
71	0x3e209922	0.15683416
72	0xbe02f145	-0.1278735
73	0xbd3cd098	-0.046097368
74	0x3e0e277c	0.1388225
75	0x3e356bd6	0.17716917
76	0xbd22e86e	-0.039772443
77	0xbe161259	-0.14655437
78	0x3e2a031a	0.16602746
79	0xbdd9af2f	-0.10629117
80	0x3de75522	0.11295535
81	0x3ddc6a20	0.10762429
82	0xbe32b6fa	-0.17452613
83	0xbe26ca90	-0.16288209
84	0x3e263e68	0.16234744
85	0xbcc8392f	-0.02444133
86	0xbe0a507d	-0.13507266
87	0x3b78efb4	0.003798467
88	0xbe1a892c	-0.1509139
89	0x3e3ebb35	0.18626101
90	0xbd8daad4	-0.069173485
91	0x3bedcf99	0.0072574136
92	0xbe055e32	-0.13024214
93	0x3d7c0b73	0.061534356
94	0xbe0fe6d7	-0.14052902
95	0xbd8b55cf	-0.06803476
96	0xbcd703ac	-0.026246868
97	0x3d852279	0.06500716
98	0xbd9301ab	-0.071780525
99	0x3e1dc5e9	0.15407528
100	0x3da9dc3a	0.08293958
101	0xbe1dc3a9	-0.1540667
102	0xbcb3cff3	-0.021949744
103	0xbd55a852	-0.052162476
104	0x3d87d95e	0.066332564
105	0xbdf564be	-0.11982106
106	0x3cd83215	0.026391068
107	0x3df717e6	0.12065105
108	0xbe232778	-0.15933025
109	0x3b974193	0.0046159714
110	0xbdfd6cc5	-0.12374262
111	0x3ce4c31a	0.027925063
112	0x3d630a59	0.05542979
113	0x3e2ba94a	0.16763797
114	0xbd91435e	-0.070929274
115	0xbe2cc19a	-0.16870728
116	0x3de4dda2	0.111750856
117	0x3ddf0b47	0.10890823
118	0x3d0c582b	0.03426377
119	0xbceea954	-0.029133476
120	0xbd28e6f9	-0.041235898
121	0x3d03bda0	0.032163262
122	0x3d04b817	0.032402124
123	0x3da9ba06	0.08287434
124	0xbdc1111b	-0.09427091
125	0xbd6c80cb	-0.057740014
126	0x3d2f2d46	0.042767785
127	0xbe360070	-0.17773604
128	0x3d82c690	0.06385529
129	0x3cee8ec2	0.029120807
130	0xbac123d0	-0.0014735404
131	0xbe1bd142	-0.15216544
132	0xbd8532ee	-0.06503855
133	0xbdaf8e79	-0.085720964
134	0x3e052352	0.13001755
135	0x3c349f0c	0.011024248
136	0xbde22c2c	-0.11043581
137	0xbe0b5587	-0.13606845
138	0x3ddea33c	0.10870978
139	0x3cd58910	0.026066333
140	0xbd1dd6a1	-0.038534764
141	0xbdd4524a	-0.10367258
142	0xbcc81e1f	-0.024428425
143	0xbe30da8b	-0.17270868
144	0x3e26894a	0.16263309
145	0x3cb113e8	0.021615937
146	0xbcadb180	-0.021202803
147	0xbd6d98f8	-0.05800721
148	0xbce18d52	-0.027533207
149	0x3e120fd2	0.14263847
150	0x3d2b4b44	0.041819826
151	0xbdc2596e	-0.094897136
152	0xbe1e86e5	-0.15481146
153	0xbd1722a8	-0.036898285
154	0xbe3c00ab	-0.1835963
155	0x3e0c73e4	0.13716084
156	0xbe14c770	-0.14529204
157	0xbd310de2	-0.04322613
158	0xbdb5351e	-0.08848022
159	0xbdcf761d	-0.1012995
160	0xbe109346	-0.1411868
161	0x3e2b2d33	0.16716461
162	0xbe0f0895	-0.13968118
163	0x3dad6a92	0.08467592
164	0xbc9d993f	-0.019238112
165	0xbe19b4dd	-0.150104
166	0xb769f010	-1.3943776e-05
167	0xbe184643	-0.14870553
168	0x3d62e794	0.05539663
169	0xbe19f027	-0.15033017
170	0x3e20a4a1	0.15687801
171	0xbd3f5dce	-0.04672032
172	0xbdec58e6	-0.115403935
173	0x3b5b6739	0.0033478274
174	0xbdfc986e	-0.12333761
175	0xbd9cf8b1	-0.076646216
176	0x3e0e223b	0.13880245
177	0x3deca2af	0.11554467
178	0xbe00fce3	-0.12596469
179	0xbda37a19	-0.07982273
180	0x3cb7da31	0.022442909
181	0x3e2c5a28	0.16831267
182	0x3e1d43ba	0.15357867
183	0xbe00c388	-0.12574589
184	0xbe0f0761	-0.13967659
185	0x3e20e2c8	0.1571151
186	0xbe26a6f9	-0.16274633
187	0x3e024476	0.12721428
188	0xbe0279b5	-0.1274174
189	0x3d3de37a	0.046359517
190	0xbc5634b7	-0.013074092
191	0x3d847416	0.06467454
192	0x3d3b726b	0.045763414
193	0xbdc49f7d	-0.096007325
194	0x3d6b363c	0.05742477
195	0xbe0546a1	-0.13015224
196	0xbe2d66a4	-0.16933686
197	0xbc9906a9	-0.018679934
198	0x3da74f53	0.08169427
199	0x3dce2438	0.10065502
200	0xbe1fae3c	-0.15593809
201	0xbc77c04e	-0.015121533
202	0xbd4e3b3a	-0.05034945
203	0xbc604e12	-0.013690488
204	0x3ace83ec	0.0015755869
205	0x3d4a99f8	0.049463242
206	0x3e144a42	0.14481452
207	0x3cfed4a6	0.031107258
208	0x3d988856	0.07447879
209	0x3e1f7607	0.15572368
210	0xbe16e7b4	-0.14736825
211	0xbe0ff187	-0.14056979
212	0x3d322aff	0.043498036
213	0xbc0e235f	-0.008675425
214	0xbe003d0b	-0.12523286
215	0xbdcc9061	-0.099884756
216	0xbe0be1df	-0.13660382
217	0xbd911b35	-0.070852675
218	0xbdceac03	-0.100914024
219	0x3e1b87ca	0.15188518
220	0xbe093f51	-0.1340306
221	0xbc64c776	-0.013963571
222	0xbddda0a7	-0.10821658
223	0xbd91eedf	-0.07125639
224	0xbe00c6a5	-0.12575777
225	0x39fe7382	0.00048532715
226	0xbdb98229	-0.09058029
227	0x3df38343	0.118902706
228	0x3deef215	0.11667267
229	0xbcedc6de	-0.029025491
230	0xbe0aff0c	-0.13573855
231	0xbe238a2b	-0.15970676
232	0x3e2f40ff	0.17114638
233	0xbd022fe5	-0.031783957
234	0x3c68ea88	0.014216073
235	0x3ca784b7	0.020449026
236	0xbb82c4a4	-0.0039907265
237	0xbe324e58	-0.17412698
238	0xbe110b24	-0.14164406
239	0x3c79b632	0.015241193
240	0x3def1b99	0.11675186
241	0x3e1151a9	0.14191307
242	0x3b9c45a4	0.004769044
243	0xbde75787	-0.112959914
244	0x3cf55ef4	0.029952504
245	0xbcae58cd	-0.021282578
246	0xbc83bde8	-0.016081765
247	0x3dcafe24	0.09911755
248	0x3cb68502	0.02228022
249	0xbc031d0f	-0.008002534
250	0xbe019f61	-0.12658454
251	0x3dde2270	0.10846412
252	0xbe101ec8	-0.14074242
253	0xbdfb7917	-0.122789554
254	0xbe2b6c1f	-0.16740464
255	0xbd7eb5fd	-0.062185276

fc.bias f4 [5]
0	0x3d5895c4	0.052877203
1	0x3c26714f	0.010158851
2	0xbdbc3575	-0.091898836
3	0xbda690ea	-0.08133109
4	0xbd867a86	-0.06566338
